CIFAR10_model_quantized.tflite (tflite, 668320 bytes, 18 tensors)

dense_9/bias f4 [256]
0	0xbbda3992	-0.006659695
1	0xbc8e6795	-0.017383376
2	0x3c95e814	0.01829914
3	0xbb54c89e	-0.003246821
4	0xbbc53e77	-0.0060194093
5	0xbc0e84bb	-0.008698638
6	0xbca994af	-0.02070078
7	0xbb9d143e	-0.004793673
8	0xbb2c1b60	-0.0026261434
9	0x3b9e4430	0.004829906
10	0x3c162e60	0.00916633
11	0xbbcef045	-0.0063152635
12	0xbd03a7f1	-0.032142583
13	0x3b38bfbe	0.002819046
14	0xbc351d83	-0.011054399
15	0xbbb49360	-0.0055107325
16	0xbbe325bf	-0.00693199
17	0xbae899c4	-0.0017746021
18	0x3bb84a70	0.005624108
19	0x3aac161e	0.001312915
20	0xbc874885	-0.016514072
21	0x3c468015	0.012115498
22	0xbc4165ed	-0.011804086
23	0xbc8c52f6	-0.017129403
24	0xbc06badf	-0.0082232645
25	0xbc13e815	-0.009027501
26	0xbb71bb02	-0.0036885147
27	0xbb13d3c3	-0.002255664
28	0xbb5699d4	-0.0032745497
29	0xbc45c90d	-0.01207186
30	0x3c08dbf4	0.008353222
31	0xbbd26562	-0.006420777
32	0x3c8184a4	0.015810318
33	0xbc53b100	-0.012920618
34	0xbc39ac49	-0.01133258
35	0xbba7e03e	-0.0051231673
36	0xbb08d2e6	-0.0020877658
37	0xbc3fee6f	-0.011714562
38	0xbc5b1b19	-0.01337316
39	0xbc3581fa	-0.011078352
40	0x3c8757a2	0.016521279
41	0xbc73780c	-0.014860164
42	0xbb2e419a	-0.0026589395
43	0xbc9d2ae3	-0.019185489
44	0x3aaf234e	0.0013361962
45	0xbc5f0bc7	-0.013613648
46	0xbc67a9ff	-0.014139651
47	0xbc57b439	-0.013165527
48	0x3bcddc71	0.006282382
49	0xbc3527c1	-0.011056841
50	0xbc2e7897	-0.010648868
51	0x3b46ed33	0.0030353784
52	0xba3de9cf	-0.0007244618
53	0x3b7afbf0	0.003829714
54	0xbc302b41	-0.0107525
55	0xbb939a6a	-0.0045044916
56	0xbb29bcac	-0.002589981
57	0xbc851faa	-0.01625045
58	0xbcb72502	-0.022356514
59	0xbc5191ba	-0.012791092
60	0xbc60b40f	-0.013714804
61	0xbb274cfd	-0.0025528066
62	0xbb55326c	-0.0032531274
63	0xba4dbdf4	-0.00078484346
64	0xbc5b0b31	-0.013369367
65	0x3c16390f	0.009168877
66	0xbc38e744	-0.011285607
67	0xbc41f34d	-0.011837793
68	0xbcb50acb	-0.022099873
69	0xbc68e66c	-0.014215093
70	0xbbe30ddc	-0.0069291424
71	0x3c281bc6	0.010260528
72	0x3b95670d	0.0045594038
73	0x3bb10612	0.005402335
74	0xbc3c5645	-0.011495178
75	0xbcaccae9	-0.021092849
76	0xbabce28d	-0.0014410779
77	0x39d3c246	0.000403898
78	0xbbc2d0bb	-0.0059452928
79	0xbb97e44d	-0.00463537
80	0xbbee0a12	-0.007264384
81	0xbad0de75	-0.0015935438
82	0xbb24da60	-0.0025154576
83	0xbc1c0c39	-0.0095243985
84	0xbb1ab473	-0.0023606091
85	0xbc3545c8	-0.011064
86	0xbb930f45	-0.0044879043
87	0xbc9ae805	-0.018909464
88	0x3b2b4beb	0.002613778
89	0xbba93b82	-0.0051645646
90	0xbc03bfd1	-0.008041338
91	0xbb9a312d	-0.0047055692
92	0x3ba0a8f6	0.004902954
93	0xbc5f28bf	-0.0136205545
94	0x396a6893	0.00022354936
95	0xbb04f9cb	-0.002029049
96	0x3c13e00d	0.009025586
97	0xbb263325	-0.0025360074
98	0xbc9ae734	-0.018909074
99	0x3b5240d0	0.0032082088
100	0xbbb94bab	-0.0056547723
101	0xb9bddc22	-0.000362129
102	0xba8d7d65	-0.0010794817
103	0x3c115073	0.008869278
104	0xbc0ecc00	-0.00871563
105	0xbbaa79bc	-0.0052025
106	0xbc1515a8	-0.0090994015
107	0xbccd1dc2	-0.025038604
108	0xbc54f2ac	-0.012997311
109	0x3be69e91	0.0070379456
110	0x3b70597d	0.0036674433
111	0xbc915b0b	-0.017743608
112	0x3c63f8b9	0.013914281
113	0xbbc9023f	-0.006134301
114	0x3c1d621a	0.009605909
115	0x3b9a1a8f	0.004702873
116	0xbc5cb122	-0.013469966
117	0x3c54f1d6	0.012997111
118	0xbbe53b8c	-0.006995624
119	0xbc9462d2	-0.018113527
120	0xbc829866	-0.01594181
121	0xbcafc858	-0.021457836
122	0xbbed4df6	-0.0072419597
123	0x3b130b2c	0.002243708
124	0x3ba0d4f2	0.0049081976
125	0xbc51a674	-0.012796033
126	0xbc36281a	-0.011117959
127	0x3a8e1fc7	0.0010843211
128	0x38bf40f6	9.11969e-05
129	0xbc6ce792	-0.014459508
130	0x3b5adbeb	0.0033395241
131	0x3aeae75e	0.0017921736
132	0xbc126b7f	-0.008936762
133	0xb9c9c7d6	-0.00038486597
134	0xbc2aa413	-0.010415095
135	0xbc62841b	-0.013825442
136	0xbc8494c1	-0.016184213
137	0xbb4f97f9	-0.0031676276
138	0xbc8e6307	-0.017381204
139	0x3c17694d	0.009241414
140	0xb7dff43e	-2.6697406e-05
141	0x3bc9e4f7	0.006161328
142	0xbcb0f851	-0.021602781
143	0x3abe5940	0.0014522448
144	0x3c2c6842	0.010522904
145	0xbca1dc65	-0.019758413
146	0xbc173470	-0.009228811
147	0xbc0217a5	-0.007940208
148	0x3c0fc7bf	0.0087756505
149	0xbc032e57	-0.008006654
150	0x3bfba16d	0.0076791556
151	0x3b7b9f16	0.0038394383
152	0x3c526b1d	0.012842921
153	0xbc6884fc	-0.014191862
154	0xbc03dd9d	-0.008048442
155	0xbaf379d6	-0.0018575739
156	0x3c49bc91	0.012313024
157	0xbc8fa4a9	-0.01753457
158	0xbc0a26c0	-0.00843209
159	0xbbf003e0	-0.0073246807
160	0xbc47dab0	-0.012198135
161	0xbc8513b6	-0.01624475
162	0xbc89b2f0	-0.016808957
163	0x3bc6834f	0.0060581337
164	0xbba35c0f	-0.0049853395
165	0xbd09f051	-0.03367645
166	0x3bca5211	0.006174334
167	0x3c06cb5b	0.008227195
168	0x3c3629b0	0.0111183375
169	0xbbfc557b	-0.0077006198
170	0xbbe1f71c	-0.006895913
171	0xbaa86c5a	-0.0012849674
172	0x3bca7166	0.006178069
173	0xbca20847	-0.019779338
174	0x3c58c62b	0.013230841
175	0x3b13ce5d	0.0022553422
176	0x3b3847a6	0.0028118878
177	0xbc07b739	-0.00828343
178	0xbc698264	-0.014252279
179	0x3c1f39d0	0.009718373
180	0xbc157efc	-0.009124514
181	0xbc853409	-0.016260164
182	0x3b26dbe8	0.0025460664
183	0xbb86d7e8	-0.0041150935
184	0xbc86e41c	-0.016466193
185	0xbc8d5594	-0.01725272
186	0x3bfd6125	0.007732528
187	0x3cb77703	0.022395616
188	0x3b9633b6	0.004583801
189	0xbc51caa0	-0.012804657
190	0xbc0e070b	-0.008668671
191	0x3ca016ad	0.019542063
192	0xbcb03659	-0.02151029
193	0x3bb1f51c	0.0054308306
194	0x3b271f4c	0.0025500832
195	0xbbb760f9	-0.005596277
196	0x3baa0d3b	0.0051895655
197	0xbb897a63	-0.004195498
198	0xbae50092	-0.0017471483
199	0xbc0bdf6b	-0.008537154
200	0xbc643a52	-0.01392992
201	0xbb3b98ba	-0.0028624968
202	0x3c2f253a	0.010690028
203	0xbb74d702	-0.00373596
204	0x3cca89cb	0.024723908
205	0xbca449c9	-0.020054715
206	0xbc1444fa	-0.009049648
207	0x3b671ca6	0.0035264879
208	0xbbf96e70	-0.007612042
209	0x3c85cc05	0.016332636
210	0x3ca863a2	0.020555321
211	0xbcc6bfc1	-0.024261357
212	0x3cd60829	0.026126938
213	0x3bdc501b	0.0067234165
214	0xbc99f618	-0.018794104
215	0x3bd612b4	0.0065329913
216	0x3c7d7aef	0.015471204
217	0xbb4fb8ef	-0.0031695922
218	0x3b5a2cd5	0.0033290882
219	0xbc489029	-0.012241402
220	0xbc40ae36	-0.011760285
221	0xbce34608	-0.027743354
222	0xbb8ab469	-0.0042329323
223	0x3bab297b	0.0052234507
224	0xbc08fea0	-0.008361489
225	0x3b8997ee	0.0041990196
226	0xbbdecf5b	-0.006799621
227	0xbb047525	-0.0020211425
228	0xbc03556b	-0.008015971
229	0x3bf2b225	0.0074064904
230	0x3b92d932	0.004481458
231	0xbc1e1967	-0.009649611
232	0x3c2264ed	0.009911758
233	0xbc8178ca	-0.015804667
234	0xbbe2d1cf	-0.006921984
235	0x3c17995a	0.00925287
236	0xbc3edcde	-0.0116493385
237	0x3c19068e	0.009339942
238	0xbc354bba	-0.011065418
239	0x3c848167	0.016174985
240	0xbc35b79e	-0.011091141
241	0xbd0e63b7	-0.034763064
242	0x3acfc4c3	0.0015851486
243	0x3c90a348	0.017655984
244	0xbbe10114	-0.0068665836
245	0xbc5bd361	-0.013417096
246	0x3b8ee74b	0.0043610684
247	0xbc414dd4	-0.011798341
248	0x3c7353a7	0.014851487
249	0x3bbf167b	0.0058315373
250	0xbb2a9a87	-0.0026032047
251	0xbbc8eaee	-0.0061315214
252	0xbbe929c4	-0.0071155746
253	0xbcbdeb81	-0.023183586
254	0x3b24983b	0.002511515
255	0x3c7b2284	0.015328053

dense_11/bias f4 [10]
0	0xbcb5ae5a	-0.022177864
1	0xbc8ece65	-0.017432401
2	0xbbc59097	-0.0060291993
3	0x3d0e5b81	0.034755234
4	0x3cf4b43e	0.029871102
5	0xbb3b023e	-0.0028535272
6	0xbc4d0fee	-0.012516005
7	0x3b108b80	0.0022055805
8	0xbce94fba	-0.0284804
9	0x3c926c8a	0.017874021

dense_10/bias f4 [128]
0	0x3bf5da65	0.0075028413
1	0x3c50a747	0.0127351945
2	0x3d3f7e88	0.04675153
3	0xbd2a5afa	-0.04159067
4	0xbd303aed	-0.043024946
5	0x3d1b8c75	0.037975747
6	0x3c2fb857	0.010725102
7	0xbb3cacb7	-0.002878947
8	0x393f271f	0.00018229753
9	0x3ce169cf	0.027516274
10	0xbc53604f	-0.01290138
11	0x3c9715d2	0.018443022
12	0x3cce71e6	0.025200795
13	0xbcbd3ec7	-0.023101224
14	0xbc6b4362	-0.014359327
15	0xbd28e608	-0.041235
16	0x3d7fb843	0.062431585
17	0xbbb1df1e	-0.005428209
18	0xbc30c7cb	-0.010789822
19	0x3d9659c8	0.07341343
20	0xbb784847	-0.0037884878
21	0xbc82b08a	-0.015953321
22	0x3bc50e43	0.006013663
23	0x3c34a79c	0.011026289
24	0xbd0416cc	-0.032248303
25	0x3bb5f3c5	0.0055527412
26	0x3c883e5c	0.016631298
27	0x3ac784c1	0.0015222059
28	0x3cc3f9c8	0.023922816
29	0xbcb1b263	-0.021691507
30	0x3ca51c00	0.020154953
31	0xbc3dc58d	-0.011582744
32	0xbd002d0d	-0.031292964
33	0x3c942734	0.0180851
34	0x3c0c3a3b	0.008558805
35	0xbc014d95	-0.007892032
36	0xbcdc1140	-0.026863694
37	0x3cb53a3f	0.0221225
38	0xbc119b17	-0.008887074
39	0x3c94c53b	0.018160453
40	0x3b76dd36	0.0037668473
41	0x3cb70b7b	0.022344342
42	0xbcbd21e3	-0.023087448
43	0xbd01bb61	-0.03167284
44	0xbcc5b9ab	-0.024136385
45	0x3ca47976	0.020077448
46	0x3cca92ac	0.024728142
47	0xbc6eb5e0	-0.01456973
48	0xbc432bd1	-0.011912302
49	0x3d20414d	0.039124776
50	0x3cf1d474	0.02952025
51	0xbc631b1c	-0.013861444
52	0x3cc8d6cb	0.024516484
53	0xbbf4133f	-0.0074485834
54	0xbc36e9a1	-0.0111641
55	0x3cd75b28	0.026288584
56	0xbcd19f2a	-0.02558859
57	0x3d309f1d	0.043120492
58	0xbc6e6dba	-0.014552528
59	0x3d408a82	0.04700709
60	0xbcccf7d6	-0.025020521
61	0x3cadeb1d	0.021230275
62	0x3c9661c5	0.018357167
63	0xbce08b18	-0.027410075
64	0x3b64ebaf	0.0034930517
65	0x3cc1fc6a	0.02367993
66	0x3d10eb7b	0.03538082
67	0xbc096220	-0.008385211
68	0xbc1ed43c	-0.009694155
69	0x3d11d6a9	0.035605107
70	0x3c43906d	0.011936289
71	0xbd133db7	-0.035947528
72	0xbbdfe99e	-0.0068332693
73	0xba54e74b	-0.00081216235
74	0x3d53645d	0.051609386
75	0x3cd4d9c8	0.025982752
76	0xbaca4f40	-0.0015434995
77	0x3d1f235e	0.03885209
78	0xbc8086e7	-0.015689326
79	0x3c7cb999	0.015425109
80	0xbd241231	-0.04005641
81	0x3cd126b3	0.025531149
82	0x3c039a57	0.008032403
83	0x3c325060	0.010883421
84	0xbc267c33	-0.010161447
85	0xbba9ba4b	-0.0051796786
86	0xbd6643cc	-0.056217
87	0x3d12b289	0.035814796
88	0xbc35a39c	-0.011086371
89	0xbb85da74	-0.0040848795
90	0xbd2be566	-0.04196682
91	0x3c2c33bb	0.01051038
92	0xbd1f5052	-0.03889496
93	0xbc245f62	-0.010032507
94	0xbcc4bba7	-0.02401526
95	0x3b53df56	0.0032329164
96	0xbca54ea4	-0.0201791
97	0x389d7c3d	7.5094846e-05
98	0x3c83d78b	0.01609399
99	0x3c24c2f3	0.010056245
100	0xbcdd8b0f	-0.027043847
101	0xbcddfa18	-0.027096793
102	0xbc133427	-0.008984602
103	0xbc8a3306	-0.016870033
104	0x3cfe8da2	0.031073395
105	0xbc8f494f	-0.017491011
106	0x3ac4f1f7	0.0015025724
107	0x3d30f953	0.043206524
108	0xbc21fb0c	-0.009886514
109	0xbcc5fa71	-0.024167271
110	0x3bac3597	0.005255412
111	0x3d2f7ccc	0.042843625
112	0x3d1a5edd	0.037688125
113	0x3cdd7d49	0.02703728
114	0xbcea5216	-0.028603595
115	0x3bc436ae	0.0059879636
116	0xbc802976	-0.01564477
117	0xbc9b8063	-0.018982118
118	0xbd03eee0	-0.03221023
119	0xbce57aa4	-0.028012581
120	0x3c8a0abf	0.016850827
121	0xbbdabe26	-0.0066754995
122	0xbc61879a	-0.01376524
123	0xbc347697	-0.011014602
124	0xbc138ce5	-0.00900576
125	0x3d0306c5	0.031988878
126	0x3a7afcc9	0.0009574411
127	0x3cf43a2b	0.029812893

conv2d_9/bias f4 [32]
0	0x3a7f2d18	0.00097341975
1	0x3cba4720	0.022738993
2	0x3c491841	0.012273849
3	0xbcaa85d0	-0.02081576
4	0x3cf6a01c	0.030105643
5	0xbd1cb097	-0.038254347
6	0x3d30f594	0.04320295
7	0x3d67ae66	0.056562804
8	0x3ba8c844	0.0051508266
9	0x3c9fc99d	0.019505316
10	0x3c5dd012	0.013538377
11	0x3bf59ed4	0.0074957404
12	0x3c8e3444	0.017358907
13	0xbbe5daef	-0.0070146243
14	0x3c8bedc3	0.017081147
15	0x3cacde9c	0.021102242
16	0x3ca4306b	0.020042619
17	0x3c963ed5	0.018340508
18	0x3d2ba110	0.041901648
19	0xbce26940	-0.027638078
20	0xbc46ea1b	-0.012140776
21	0x3bc20eff	0.005922198
22	0x3c0fc8a6	0.008775866
23	0x3d84b2ab	0.06479391
24	0x3bd51b76	0.0065035177
25	0x3b82d633	0.0039928197
26	0x3bdd28f5	0.006749267
27	0xbb8e1783	-0.004336299
28	0x3bce9a63	0.0063050254
29	0x3b15ddfc	0.0022867909
30	0x3c878d75	0.016546944
31	0x3c86dd09	0.01646282

conv2d_11/bias f4 [128]
0	0xbc9ff41e	-0.019525584
1	0x3c860133	0.016357994
2	0xbd60e25a	-0.054903366
3	0xbd13b2d0	-0.0360592
4	0xbca1437c	-0.0196855
5	0xbbdb383c	-0.0066900533
6	0xbc7e1138	-0.015507035
7	0xbda30daf	-0.07961594
8	0xbce1606b	-0.027511796
9	0xbca782a9	-0.020448046
10	0x3c2b16cf	0.01044245
11	0xbd2a9f55	-0.041655857
12	0xbcf16baf	-0.029470293
13	0xbd024dc7	-0.031812456
14	0x3c887d45	0.016661296
15	0xbc1e8c81	-0.009677053
16	0xbbde54be	-0.0067850044
17	0xbcda7617	-0.026667638
18	0xbc9a67b3	-0.018848276
19	0xbd72a135	-0.05923577
20	0xbd8a4e68	-0.06753236
21	0xbc0c7184	-0.008571986
22	0xbd080551	-0.033208195
23	0xbd2d0a25	-0.042246003
24	0x3ca46aa2	0.020070378
25	0xbcf5b86c	-0.029995166
26	0xbd4e13d1	-0.050311867
27	0xbc33a35f	-0.010964244
28	0x3c303a03	0.010756019
29	0x3bf00a4e	0.007325447
30	0xbc678ab6	-0.014132192
31	0x3b4a6f24	0.0030889
32	0xbcfb5ece	-0.030684855
33	0xbc07d531	-0.008290575
34	0xbb73b5c0	-0.003718719
35	0xbd37f7c3	-0.04491402
36	0xbcaaaf9c	-0.02083569
37	0xbd0ff5ed	-0.035146642
38	0xbce064c2	-0.027391795
39	0xbcc2a597	-0.0237606
40	0xbd20844d	-0.03918867
41	0x3ca21858	0.019786999
42	0xbc95f6ca	-0.018306155
43	0xbcab8d82	-0.0209415
44	0xbd0b167b	-0.033956986
45	0x3c9df14d	0.0192801
46	0x3b08ac6b	0.0020854722
47	0xbc4e62c6	-0.012596792
48	0xbd09305b	-0.03349338
49	0xbc38d1b8	-0.01128047
50	0x3c37b4da	0.011212552
51	0xbcc134d2	-0.023584757
52	0xbd1bbd24	-0.038022175
53	0xbd5581f2	-0.05212588
54	0xbdc97e66	-0.09838562
55	0xbd223bdb	-0.039607864
56	0x3cc8b84e	0.024501946
57	0xbd22abac	-0.0397145
58	0x3c05f46c	0.0081759505
59	0x3ca08f31	0.019599529
60	0xbc26d77c	-0.010183211
61	0xbd5a2588	-0.05325845
62	0xbc19e2c1	-0.009392441
63	0xbd72d768	-0.05928746
64	0xbd5b34cf	-0.05351716
65	0xbce2e435	-0.027696708
66	0xbd3c8d35	-0.046033103
67	0xbb7dcc69	-0.0038726574
68	0xbd66d9cd	-0.056360055
69	0xbd30fa1e	-0.04320728
70	0xbcadfe2e	-0.021239366
71	0xbcd8c2c6	-0.026460063
72	0xbcf3857e	-0.02972674
73	0xbda8b105	-0.08236889
74	0xbba8fbad	-0.005156955
75	0x3b9c18f7	0.004763718
76	0x3c7df4d6	0.015500268
77	0xbd3876ec	-0.045035288
78	0xbcd3ff50	-0.025878578
79	0xbc2951e8	-0.010334469
80	0xbcce0718	-0.025149867
81	0xbd4fdbe4	-0.050746813
82	0xbd910ffc	-0.07083127
83	0xbaa72dc6	-0.001275473
84	0xbd1b6c2c	-0.037944958
85	0xbbe58336	-0.007004167
86	0xbc9a6dbb	-0.018851152
87	0xbc60be26	-0.01371721
88	0xbc3f2ff4	-0.011669148
89	0xbd5606af	-0.052252468
90	0xbc5799b1	-0.0131592015
91	0xbd029e7e	-0.03188943
92	0xbcd15205	-0.025551805
93	0x3ce7d867	0.02830143
94	0xbc94abfa	-0.018148411
95	0xbd2da555	-0.042394
96	0xbd35b585	-0.044362564
97	0xbcef9376	-0.02924512
98	0xbd731692	-0.059347697
99	0xbca3b63a	-0.019984353
100	0x3c7c7cf6	0.015410652
101	0xbd2708bc	-0.040779814
102	0xbcb25a72	-0.021771643
103	0x3c8c09d3	0.017094528
104	0xbce109cc	-0.027470492
105	0xbc8a5f20	-0.016891062
106	0xbcb11c5e	-0.021619972
107	0xbce1044f	-0.027467875
108	0xbb23a9ae	-0.0024972963
109	0x3c7e8615	0.015534897
110	0xbcd2fdd4	-0.0257558
111	0xbcf4d28f	-0.029885558
112	0xbd5a2a5c	-0.053263053
113	0xbd2c13ec	-0.042011186
114	0xbc42548e	-0.01186098
115	0xbc946656	-0.018115204
116	0xbd277f0e	-0.040892653
117	0xbd7d097c	-0.061776623
118	0xbd41cd10	-0.047314703
119	0x3a78d706	0.000949249
120	0xbc6ed108	-0.014576204
121	0xbd8aef8c	-0.06783971
122	0xbbd2a17b	-0.0064279414
123	0x3c246e16	0.010036012
124	0xbcb7d1f2	-0.022438977
125	0xbcb17c43	-0.021665698
126	0xbd095181	-0.033524994
127	0xbceb6c1f	-0.02873808

conv2d_10/bias f4 [64]
0	0x3c797503	0.015225652
1	0xbd2c44de	-0.042057864
2	0xbb2570df	-0.0025244278
3	0x3d2c33ab	0.042041462
4	0x3b61d698	0.0034460183
5	0xbc55da6f	-0.013052567
6	0xbd444e3d	-0.047926176
7	0xbb1a0ebd	-0.002350732
8	0x389431ba	7.066452e-05
9	0xbb9ba005	-0.0047493004
10	0x3afef5a2	0.0019451866
11	0x3c1a06de	0.009401051
12	0x3c0130ce	0.007885171
13	0xbc2d3b3d	-0.010573206
14	0x3c6087a3	0.013704213
15	0xbc434613	-0.011918562
16	0xbcb85716	-0.022502463
17	0x3d3f7c9e	0.046749704
18	0xbce91843	-0.028453952
19	0xbcdb0f67	-0.026740743
20	0xbc03ee1f	-0.008052378
21	0xbac5f7d9	-0.0015103772
22	0xba66ce78	-0.000880457
23	0xba4275ae	-0.00074180483
24	0xbc9e9fba	-0.019363273
25	0x3bacacfb	0.0052696443
26	0xbd80af3c	-0.06283423
27	0xbcea6d69	-0.028616624
28	0x3bb400f6	0.0054932786
29	0xbddfed08	-0.10933882
30	0xbbb90c32	-0.0056472057
31	0xbd802e8f	-0.0625888
32	0xbba82d99	-0.005132389
33	0xbbd0087f	-0.006348669
34	0x3c4d1454	0.012517054
35	0x3caf341c	0.021387152
36	0xbc2ea171	-0.010658608
37	0xbc6ff8f6	-0.014646759
38	0x3cf470b2	0.029838894
39	0x3c8f2c74	0.017477252
40	0xbb5eb0c0	-0.0033979863
41	0xbc85558e	-0.016276147
42	0xbd37693b	-0.04477809
43	0xbc2b43b3	-0.0104531525
44	0x3ad3e630	0.0016166624
45	0xbd0fac01	-0.035076145
46	0xbcc9759d	-0.024592215
47	0xbc0ce534	-0.008599568
48	0x3ab7cdf0	0.0014023166
49	0xbd2d5129	-0.04231373
50	0x3d1c18fe	0.038109772
51	0xbc235294	-0.009968419
52	0x3c9364f3	0.017992472
53	0x3d1b5f63	0.037932765
54	0xbc978490	-0.018495828
55	0x3cd367e2	0.025806371
56	0xbcbe0f6f	-0.023200719
57	0xbcd06915	-0.025440732
58	0xbd003ead	-0.031309772
59	0x3beb04eb	0.007172217
60	0x3c685b88	0.014181979
61	0xbd00a071	-0.03140301
62	0x3c8dbcc9	0.017301934
63	0x3b0d2a72	0.0021540192

model_3/batch_normalization_9/FusedBatchNormV3 f4 [32]
0	0x41050bf8	8.315422
1	0x40ebd7a3	7.370073
2	0x40b2d36e	5.5883093
3	0x4085dcf6	4.183223
4	0x40fd8250	7.9221573
5	0x408ef740	4.467682
6	0x40f49ae7	7.643909
7	0x40ce2948	6.442539
8	0x40a49192	5.14277
9	0x40b09ebb	5.5193763
10	0x404a9679	3.1654341
11	0x40bc84aa	5.8911943
12	0x40ae030d	5.4378724
13	0x4064f334	3.577344
14	0x40dcf016	6.9043074
15	0x404106ab	3.016032
16	0x40203efb	2.503844
17	0x411ee0e3	9.929904
18	0x4126a5a9	10.415444
19	0x40858033	4.1718993
20	0x403dd710	2.9662514
21	0x401a4c65	2.4109128
22	0x40eb5fa1	7.3554235
23	0x40e9df0b	7.308477
24	0x40d5a6c0	6.676605
25	0x41104cd7	9.01876
26	0x412417f7	10.255851
27	0x40bc5903	5.8858657
28	0x410c543c	8.770565
29	0x416bf54d	14.747388
30	0x40163d73	2.3475006
31	0x40706a08	3.7564716

model_3/batch_normalization_9/FusedBatchNormV31 f4 [32]
0	0xbf02da08	-0.5111394
1	0xbf3a0818	-0.726686
2	0xbf1c6812	-0.610963
3	0xbf492246	-0.7856792
4	0xbf314b7c	-0.69255805
5	0xbf3842e1	-0.7197705
6	0xbf3b2d69	-0.73116165
7	0xbf37b261	-0.7175656
8	0xbf1ec874	-0.6202462
9	0xbf27c10b	-0.65528935
10	0xbf2780fd	-0.65431195
11	0xbf2f1a68	-0.6839967
12	0xbf401799	-0.7503601
13	0xbf254c1b	-0.6456925
14	0xbf29c586	-0.6631702
15	0xbf1f4e4b	-0.6222884
16	0xbf263cf1	-0.6493674
17	0xbf13a84e	-0.5767869
18	0xbf34e31a	-0.7065903
19	0xbf357d07	-0.708939
20	0xbf3f3a39	-0.74698216
21	0xbf371eb4	-0.71531224
22	0xbf1688e8	-0.5880265
23	0xbf3dfd27	-0.74214405
24	0xbf459d0a	-0.7719275
25	0xbf2bd460	-0.67120934
26	0xbf01638b	-0.50542516
27	0xbf317acf	-0.69328016
28	0xbf008ca8	-0.50214624
29	0xbf01f413	-0.5076305
30	0xbf27ae0e	-0.6549996
31	0xbf253605	-0.6453555

model_3/batch_normalization_10/FusedBatchNormV3 f4 [64]
0	0x3fb41915	1.4070154
1	0x4033dee5	2.8104794
2	0x4030af5a	2.7607026
3	0x4008273a	2.1273942
4	0x3fe1283c	1.7590404
5	0x4008748d	2.1321137
6	0x3faa4d27	1.3304795
7	0x400c0506	2.1878066
8	0x402c4524	2.69172
9	0x3fc6da87	1.5535439
10	0x40356f08	2.8349018
11	0x3fe6fe74	1.8046403
12	0x4051e04b	3.2793148
13	0x3fd9259f	1.6964606
14	0x3fac35cc	1.3453918
15	0x3ffaa60f	1.9581927
16	0x400aefa3	2.1708763
17	0x3fecadcc	1.8490539
18	0x3fc609bd	1.5471722
19	0x3fbb0031	1.4609433
20	0x40478c10	3.1179237
21	0x40719791	3.7748759
22	0x3ffdc6bf	1.9826277
23	0x40057ae5	2.085626
24	0x400bd420	2.184822
25	0x4051415c	3.2696142
26	0x402af596	2.6712394
27	0x40220910	2.5318031
28	0x40119dd2	2.2752576
29	0x3ff4c167	1.9121522
30	0x3fe4961f	1.7858313
31	0x4000ebae	2.0143847
32	0x3fe1804a	1.7617276
33	0x402d09b2	2.7037168
34	0x4005ed42	2.092606
35	0x4050e9dc	3.2642736
36	0x4008cf70	2.137661
37	0x403ffdb6	2.9998603
38	0x401bd432	2.4348264
39	0x4014af97	2.3232172
40	0x401618cf	2.3452642
41	0x40709d31	3.7595942
42	0x3ffb3f4b	1.962869
43	0x4080b65a	4.0222597
44	0x402264c6	2.5374007
45	0x40939630	4.6120834
46	0x4042a534	3.0413332
47	0x3f7be058	0.98389196
48	0x4008d9d4	2.1382952
49	0x401b34b3	2.4250915
50	0x3f861413	1.0474876
51	0x40324b57	2.7858484
52	0x3fe6c5e2	1.8029139
53	0x4021f562	2.530602
54	0x40000f13	2.00092
55	0x402887cc	2.6332884
56	0x401195d8	2.2747707
57	0x40144627	2.3167818
58	0x402a2cb8	2.6589794
59	0x3fcccbf5	1.5999743
60	0x401077d5	2.257314
61	0x4044db25	3.0758755
62	0x3ff6f901	1.929474
63	0x4037c4e8	2.8713932

model_3/batch_normalization_10/FusedBatchNormV31 f4 [64]
0	0xbf406e29	-0.7516809
1	0xbf0db5ca	-0.55355513
2	0xbf081756	-0.5316061
3	0xbf337fd3	-0.7011692
4	0xbf58e5c5	-0.847256
5	0xbf159e7a	-0.5844494
6	0xbf5ff27a	-0.87479365
7	0xbf22d4d0	-0.63605976
8	0xbf1317bb	-0.57458085
9	0xbf259fed	-0.6469715
10	0xbeec602f	-0.46167132
11	0xbf30905a	-0.68970263
12	0xbf261fab	-0.6489207
13	0xbf2ca3a6	-0.6743721
14	0xbf2c52ac	-0.6731365
15	0xbf2cd8fe	-0.67518604
16	0xbf0d6009	-0.55224663
17	0xbf33deab	-0.7026164
18	0xbf3df04c	-0.7419479
19	0xbf2a828f	-0.66605467
20	0xbf2ae145	-0.66749984
21	0xbef4e7de	-0.4783315
22	0xbf14e43e	-0.5816077
23	0xbf1efcd7	-0.62104553
24	0xbf16809b	-0.58789986
25	0xbf09c52e	-0.538165
26	0xbf0de881	-0.554329
27	0xbf22c341	-0.63579184
28	0xbf1be68b	-0.60898656
29	0xbf40df8e	-0.7534112
30	0xbf355e2a	-0.7084681
31	0xbf28fbcf	-0.6600923
32	0xbf3fc23e	-0.74905765
33	0xbf1a2b93	-0.6022274
34	0xbf08fda9	-0.53512055
35	0xbf03c027	-0.51465076
36	0xbf150f3e	-0.5822638
37	0xbf0476e6	-0.51743925
38	0xbf130d92	-0.5744258
39	0xbefafbb2	-0.49020153
40	0xbf2b7ba7	-0.66985554
41	0xbf052eca	-0.5202452
42	0xbf12a5de	-0.57284343
43	0xbf0ce967	-0.55043644
44	0xbf0101aa	-0.50393164
45	0xbefb0954	-0.49030554
46	0xbed8e2ec	-0.42360628
47	0xbf3e5696	-0.7435087
48	0xbefe3eb8	-0.49657226
49	0xbf080cc0	-0.53144455
50	0xbf5a0484	-0.8516314
51	0xbf202527	-0.6255669
52	0xbf220872	-0.63294137
53	0xbf168fa8	-0.5881295
54	0xbefdc5b4	-0.49564898
55	0xbf18614c	-0.59523463
56	0xbf1363fc	-0.5757444
57	0xbf0406ec	-0.5157306
58	0xbf09521c	-0.53640914
59	0xbf0d37d5	-0.5516332
60	0xbf1d7c2d	-0.615176
61	0xbf0e8345	-0.5566905
62	0xbf23ff63	-0.64061564
63	0xbee4ca77	-0.44685718

model_3/batch_normalization_11/FusedBatchNormV3 f4 [128]
0	0x3ff9f5bf	1.9528121
1	0x404886f2	3.1332364
2	0x40377a86	2.8668532
3	0x3fdb6f4e	1.7143342
4	0x3f5f19a2	0.8714849
5	0x405f8407	3.4924333
6	0x40717ecd	3.7733643
7	0x3faa7428	1.3316698
8	0x3fe965a3	1.8234142
9	0x40307d44	2.7576456
10	0x403e2088	2.9707355
11	0x3fb626c6	1.4230583
12	0x401472ee	2.3195148
13	0x402e4147	2.7227342
14	0x3f9b8245	1.214913
15	0x4010c9c8	2.2623158
16	0x4003c2c5	2.0587628
17	0x40369f2a	2.8534646
18	0x4022bd35	2.5427983
19	0x40005334	2.0050783
20	0x3fc802d8	1.5625868
21	0x4040721d	3.006965
22	0x405aed72	3.4207425
23	0x3fd91996	1.6960933
24	0x400d18b5	2.204633
25	0x4031ce8f	2.7782323
26	0x4010a554	2.2600908
27	0x3fd7615e	1.6826589
28	0x404c099f	3.1880872
29	0x40070650	2.1097603
30	0x40823d57	4.069988
31	0x40ba0087	5.8125644
32	0x400f8506	2.242494
33	0x405d1ce9	3.4548895
34	0x3fe23d13	1.7674888
35	0x408b11c3	4.345918
36	0x4016a0ba	2.35356
37	0x40153626	2.33143
38	0x40613a97	3.519201
39	0x400184cf	2.023731
40	0x3fd710ab	1.6801962
41	0x40401d79	3.0017989
42	0x4028009f	2.625038
43	0x3fc18d1b	1.5121187
44	0x3fc603e6	1.546994
45	0x3fe9d8b6	1.826926
46	0x4055b6be	3.3392787
47	0x4045ade8	3.0887394
48	0x3fa301dd	1.2734944
49	0x3fd3b5de	1.6539876
50	0x4032448a	2.7854333
51	0x401cc7b8	2.4496899
52	0x40152d3f	2.3308866
53	0x40178829	2.3676856
54	0x3f859e3f	1.0438918
55	0x3fdd7173	1.7300247
56	0x4025130e	2.579288
57	0x400c812b	2.1953838
58	0x4004fb01	2.07782
59	0x406c9594	3.6966295
60	0x3fedf2d9	1.8589736
61	0x3fe9718b	1.8237776
62	0x3fe9fa3d	1.8279492
63	0x400e25b0	2.2210503
64	0x3fb32531	1.3995725
65	0x4034b8b2	2.823773
66	0x3fb1b99a	1.3884766
67	0x3ff76a5a	1.9329331
68	0x402b1484	2.6731272
69	0x3fed1510	1.8522053
70	0x400ac476	2.168241
71	0x404f3dad	3.2381394
72	0x402f6d6c	2.7410536
73	0x405f7a40	3.4918365
74	0x404d9e1b	3.212775
75	0x40265b06	2.5993056
76	0x3fc37bed	1.5272194
77	0x4002d831	2.0444453
78	0x40180a60	2.3756332
79	0x3fdfb540	1.7477188
80	0x3fd5ddab	1.6708273
81	0x3fcb3d8b	1.5878156
82	0x3fc5b4d6	1.5445812
83	0x3fdc90ed	1.7231728
84	0x403939d3	2.8941543
85	0x400a8c2c	2.1648054
86	0x3f7390fe	0.95143116
87	0x3feff2f6	1.8746021
88	0x401d6820	2.4594803
89	0x3fcd8c74	1.6058488
90	0x40133bca	2.3005242
91	0x3fcdb2dd	1.607021
92	0x3f666386	0.8999561
93	0x404bf03d	3.186538
94	0x4024a1ca	2.5723748
95	0x3fc57900	1.5427551
96	0x3fe2b436	1.7711246
97	0x400fe7c5	2.248521
98	0x3fd51494	1.6646905
99	0x405a6f80	3.4130554
100	0x40240d17	2.563299
101	0x3fe5c275	1.7949969
102	0x3fc56dfe	1.5424192
103	0x3fee378b	1.86107
104	0x4032bac1	2.7926486
105	0x402998d7	2.6499536
106	0x4008b74b	2.1361873
107	0x3fa3a30f	1.2784137
108	0x3ff659ef	1.9246196
109	0x402b50ea	2.6768136
110	0x3fe9480b	1.8225111
111	0x3fbd5b35	1.4793459
112	0x401ac846	2.4184737
113	0x400c50b1	2.192425
114	0x3fe1e87b	1.7649072
115	0x4059014e	3.3907046
116	0x3fda1a23	1.7039226
117	0x3fb4c812	1.4123557
118	0x3fc0c57e	1.506027
119	0x402f8678	2.7425823
120	0x406d114f	3.7041814
121	0x40439972	3.0562406
122	0x4016f7c4	2.3588724
123	0x402afc5d	2.671653
124	0x40247d49	2.5701468
125	0x40053449	2.0813162
126	0x3ff1a303	1.8877872
127	0x3f9ddadd	1.2332417

model_3/batch_normalization_11/FusedBatchNormV31 f4 [128]
0	0xbef28f07	-0.47374746
1	0xbedb3389	-0.42812756
2	0xbef5af90	-0.47985506
3	0xbf2f154c	-0.6839187
4	0xbf88de11	-1.0692769
5	0xbee033e6	-0.43789595
6	0xbeba733f	-0.3641605
7	0xbf6182d2	-0.8809024
8	0xbf0e2ac5	-0.5553401
9	0xbf00447c	-0.501045
10	0xbed99863	-0.42499074
11	0xbf609c0a	-0.87738097
12	0xbefa76d9	-0.489188
13	0xbeff0795	-0.49810472
14	0xbf50ca90	-0.81559086
15	0xbf04d1bb	-0.51882523
16	0xbf1ec415	-0.6201795
17	0xbeea3218	-0.45741343
18	0xbefdc489	-0.49564007
19	0xbf3959a0	-0.7240238
20	0xbf43df86	-0.76512945
21	0xbee5e51e	-0.44901365
22	0xbec3e01f	-0.38256928
23	0xbf382a9b	-0.7194001
24	0xbf0a8086	-0.5410236
25	0xbed6e492	-0.4197126
26	0xbf146b29	-0.57976013
27	0xbf207d7e	-0.62691486
28	0xbee757ee	-0.45184273
29	0xbf1afcdc	-0.6054208
30	0xbeb60fe9	-0.35559013
31	0xbe8de10c	-0.2771076
32	0xbf108e14	-0.56466794
33	0xbec3def6	-0.38256043
34	0xbf16d05f	-0.589117
35	0xbec47490	-0.3837018
36	0xbf03e678	-0.5152354
37	0xbf02cfcc	-0.5109832
38	0xbeea9c8f	-0.4582257
39	0xbf167b0c	-0.58781505
40	0xbf3ba267	-0.7329468
41	0xbee6e480	-0.45096207
42	0xbf01e38a	-0.5073782
43	0xbf313486	-0.6922077
44	0xbf395c8e	-0.7240685
45	0xbf0e9950	-0.55702686
46	0xbed6abae	-0.41927856
47	0xbedbea50	-0.42952204
48	0xbf414a17	-0.7550368
49	0xbf2e7eae	-0.6816205
50	0xbed61dca	-0.41819602
51	0xbf0e83c2	-0.55669796
52	0xbf14ec6a	-0.5817324
53	0xbeffed76	-0.49985856
54	0xbf9afb7a	-1.2107995
55	0xbf0efc78	-0.55853987
56	0xbee9d1b4	-0.45667803
57	0xbf04d689	-0.51889855
58	0xbf13178a	-0.5745779
59	0xbec696af	-0.38786837
60	0xbf0a4f2e	-0.5402707
61	0xbf2586c4	-0.6465876
62	0xbf1d0ecc	-0.61350703
63	0xbf0d862e	-0.55282867
64	0xbf588861	-0.845831
65	0xbee59bde	-0.4484548
66	0xbf42643e	-0.7593421
67	0xbf2c227c	-0.6724012
68	0xbeec83fe	-0.46194452
69	0xbf239635	-0.6390107
70	0xbf01fe72	-0.5077888
71	0xbef6f92d	-0.4823698
72	0xbef86a76	-0.48518723
73	0xbec13528	-0.37735868
74	0xbee454d0	-0.44595957
75	0xbf008a1a	-0.50210726
76	0xbf1a6322	-0.60307515
77	0xbf0b4726	-0.5440544
78	0xbf01422b	-0.5049159
79	0xbf0e6453	-0.5562183
80	0xbf1cf62f	-0.61313146
81	0xbf45c062	-0.7724668
82	0xbf4e81c9	-0.80666786
83	0xbf17d356	-0.5930685
84	0xbf00e6ac	-0.5035198
85	0xbf0047b4	-0.5010941
86	0xbf732954	-0.94984937
87	0xbf1477d8	-0.5799537
88	0xbee4d75a	-0.4469555
89	0xbf55c169	-0.83498245
90	0xbf146b2f	-0.5797605
91	0xbf30e068	-0.69092417
92	0xbf8d932f	-1.1060542
93	0xbed5c8cf	-0.41754767
94	0xbf06fefb	-0.5273282
95	0xbf144a00	-0.57925415
96	0xbf38afcc	-0.72143245
97	0xbf11af86	-0.5690845
98	0xbf3b960a	-0.73275816
99	0xbee21439	-0.44156054
100	0xbefc265b	-0.49248013
101	0xbf292851	-0.6607714
102	0xbf28348e	-0.6570519
103	0xbf0dd286	-0.5539936
104	0xbf05e1cb	-0.5229766
105	0xbeee1188	-0.4649775
106	0xbf0c9e76	-0.5492929
107	0xbf36c95c	-0.71401
108	0xbf20922e	-0.6272305
109	0xbef4e08e	-0.47827572
110	0xbf0c57f9	-0.54821736
111	0xbf1bab52	-0.6080829
112	0xbf127bf1	-0.5722037
113	0xbf11f1da	-0.5700966
114	0xbf105804	-0.563843
115	0xbec689de	-0.3877706
116	0xbf28a759	-0.6588035
117	0xbf47791c	-0.77919173
118	0xbf5d38f7	-0.86415046
119	0xbf056707	-0.5211033
120	0xbeb9d1ee	-0.36292976
121	0xbf02c308	-0.51078844
122	0xbec8b6a5	-0.39201847
123	0xbef343b5	-0.47512594
124	0xbf0411d8	-0.5158973
125	0xbf201b10	-0.62541294
126	0xbf294bb9	-0.6613117
127	0xbf7df05e	-0.99194896

model_3/dense_9/MatMul i1 [256, 2048] scale=0.0008832115 zero_point=0
0	0xeb	-0.018547442
1	0x28	0.03532846
2	0x2d	0.03974452
3	0xc1	-0.055642325
4	0x08	0.007065692
5	0xda	-0.033562038
6	0x50	0.07065692
7	0xef	-0.015014595
8	0xfe	-0.001766423
9	0xf3	-0.01148175
10	0x28	0.03532846
11	0xc6	-0.051226266
12	0x00	0.0
13	0x00	0.0
14	0x1a	0.0229635
15	0x03	0.0026496346
16	0x21	0.02914598
17	0x35	0.04681021
18	0xf5	-0.009715326
19	0x2f	0.04151094
20	0xe9	-0.020313865
21	0xbe	-0.05829196
22	0xc2	-0.05475911
23	0x13	0.016781019
24	0x2b	0.037978094
25	0x24	0.031795613
26	0x22	0.03002919
27	0x15	0.018547442
28	0xe6	-0.0229635
29	0xf2	-0.012364961
30	0xdf	-0.02914598
31	0x08	0.007065692
32	0xf0	-0.014131384
33	0xfc	-0.003532846
34	0xe1	-0.027379556
35	0xf0	-0.014131384
36	0xee	-0.015897807
37	0xd5	-0.037978094
38	0x02	0.001766423
39	0xe0	-0.028262768
40	0x02	0.001766423
41	0x01	0.0008832115
42	0xff	-0.0008832115
43	0xd9	-0.03444525
44	0xde	-0.03002919
45	0x0c	0.010598538
46	0x14	0.01766423
47	0xd3	-0.03974452
48	0x0f	0.013248173
49	0x15	0.018547442
50	0x13	0.016781019
51	0xc8	-0.049459845
52	0xcb	-0.04681021
53	0x1f	0.027379556
54	0x18	0.021197077
55	0x1b	0.02384671
56	0x12	0.015897807
57	0xfb	-0.0044160574
58	0x44	0.06005838
59	0x15	0.018547442
60	0xcc	-0.045927
61	0x2e	0.04062773
62	0xcc	-0.045927
63	0x09	0.007948903
64	0x16	0.019430652
65	0xf3	-0.01148175
66	0xfe	-0.001766423
67	0x0e	0.012364961
68	0x31	0.043277364
69	0x28	0.03532846
70	0x35	0.04681021
71	0xdb	-0.032678824
72	0x0e	0.012364961
73	0x2c	0.038861305
74	0x1e	0.026496345
75	0xc2	-0.05475911
76	0xf3	-0.01148175
77	0xf4	-0.010598538
78	0x3a	0.051226266
79	0x0d	0.01148175
80	0x23	0.030912403
81	0xfe	-0.001766423
82	0xfe	-0.001766423
83	0x2c	0.038861305
84	0x20	0.028262768
85	0x1a	0.0229635
86	0x13	0.016781019
87	0x0f	0.013248173
88	0x25	0.032678824
89	0x20	0.028262768
90	0xd3	-0.03974452
91	0x15	0.018547442
92	0xd6	-0.037094884
93	0xe7	-0.022080287
94	0xdd	-0.030912403
95	0xf9	-0.0061824806
96	0xdf	-0.02914598
97	0x11	0.015014595
98	0x35	0.04681021
99	0xe3	-0.025613133
100	0x0b	0.009715326
101	0xfc	-0.003532846
102	0x13	0.016781019
103	0x3a	0.051226266
104	0x21	0.02914598
105	0xc7	-0.050343055
106	0x0f	0.013248173
107	0x00	0.0
108	0xfb	-0.0044160574
109	0x1f	0.027379556
110	0xc8	-0.049459845
111	0x1c	0.024729922
112	0x41	0.057408746
113	0x32	0.044160575
114	0x1a	0.0229635
115	0x13	0.016781019
116	0x08	0.007065692
117	0xda	-0.033562038
118	0x1f	0.027379556
119	0xd5	-0.037978094
120	0x04	0.003532846
121	0xdb	-0.032678824
122	0xf1	-0.013248173
123	0xe6	-0.0229635
124	0x31	0.043277364
125	0x1f	0.027379556
126	0x3a	0.051226266
127	0xe6	-0.0229635
128	0x07	0.0061824806
129	0x18	0.021197077
130	0x2f	0.04151094
131	0xdb	-0.032678824
132	0x25	0.032678824
133	0xdb	-0.032678824
134	0xe4	-0.024729922
135	0x2d	0.03974452
136	0xfd	-0.0026496346
137	0xfb	-0.0044160574
138	0x0d	0.01148175
139	0x27	0.03444525
140	0xf5	-0.009715326
141	0x19	0.022080287
142	0x2a	0.037094884
143	0xf8	-0.007065692
144	0x2b	0.037978094
145	0xff	-0.0008832115
146	0xdf	-0.02914598
147	0x2e	0.04062773
148	0x23	0.030912403
149	0xf8	-0.007065692
150	0x02	0.001766423
151	0x2d	0.03974452
152	0xef	-0.015014595
153	0xfc	-0.003532846
154	0x29	0.036211673
155	0x03	0.0026496346
156	0xfb	-0.0044160574
157	0x0b	0.009715326
158	0x33	0.045043785
159	0xf6	-0.008832115
160	0xec	-0.01766423
161	0xf4	-0.010598538
162	0xcd	-0.045043785
163	0x2b	0.037978094
164	0x36	0.04769342
165	0xe9	-0.020313865
166	0xe2	-0.026496345
167	0x1c	0.024729922
168	0xe7	-0.022080287
169	0x32	0.044160575
170	0xe9	-0.020313865
171	0xd8	-0.03532846
172	0xff	-0.0008832115
173	0x20	0.028262768
174	0xe4	-0.024729922
175	0xe6	-0.0229635
176	0xc7	-0.050343055
177	0x21	0.02914598
178	0x30	0.042394154
179	0xcf	-0.043277364
180	0xe6	-0.0229635
181	0x26	0.033562038
182	0x0b	0.009715326
183	0xd0	-0.042394154
184	0x3a	0.051226266
185	0x2d	0.03974452
186	0xfb	-0.0044160574
187	0x00	0.0
188	0x04	0.003532846
189	0x09	0.007948903
190	0xf5	-0.009715326
191	0x0a	0.008832115
192	0x1f	0.027379556
193	0x31	0.043277364
194	0xf9	-0.0061824806
195	0x02	0.001766423
196	0x3b	0.05210948
197	0x06	0.005299269
198	0x1b	0.02384671
199	0xbc	-0.06005838
200	0x07	0.0061824806
201	0xec	-0.01766423
202	0xb6	-0.06535765
203	0xfd	-0.0026496346
204	0xdb	-0.032678824
205	0x06	0.005299269
206	0xef	-0.015014595
207	0x04	0.003532846
208	0xc6	-0.051226266
209	0x27	0.03444525
210	0x10	0.014131384
211	0xd3	-0.03974452
212	0x21	0.02914598
213	0x17	0.020313865
214	0xfd	-0.0026496346
215	0xd1	-0.04151094
216	0x31	0.043277364
217	0xfb	-0.0044160574
218	0xe3	-0.025613133
219	0x21	0.02914598
220	0xf6	-0.008832115
221	0x37	0.04857663
222	0xfd	-0.0026496346
223	0x2b	0.037978094
224	0xf1	-0.013248173
225	0xcd	-0.045043785
226	0x1d	0.025613133
227	0xd5	-0.037978094
228	0x24	0.031795613
229	0xec	-0.01766423
230	0x10	0.014131384
231	0x41	0.057408746
232	0xe6	-0.0229635
233	0x29	0.036211673
234	0xe2	-0.026496345
235	0xd3	-0.03974452
236	0x4d	0.06800728
237	0x2e	0.04062773
238	0x17	0.020313865
239	0x1e	0.026496345
240	0xe0	-0.028262768
241	0xf2	-0.012364961
242	0xf5	-0.009715326
243	0xf8	-0.007065692
244	0xc2	-0.05475911
245	0xf0	-0.014131384
246	0xf2	-0.012364961
247	0xf4	-0.010598538
248	0x05	0.0044160574
249	0xfd	-0.0026496346
250	0xe6	-0.0229635
251	0x13	0.016781019
252	0x1d	0.025613133
253	0xdf	-0.02914598
254	0x18	0.021197077
255	0xf3	-0.01148175

model_3/dense_10/MatMul i1 [128, 256] scale=0.0014738627 zero_point=0
0	0xd3	-0.06632382
1	0x11	0.025055666
2	0x3e	0.091379486
3	0xfa	-0.008843176
4	0x08	0.011790901
5	0xe3	-0.042742018
6	0xd8	-0.058954507
7	0xad	-0.122330606
8	0xe0	-0.047163606
9	0x23	0.051585194
10	0xed	-0.02800339
11	0x3a	0.085484035
12	0xcd	-0.075167
13	0xe1	-0.045689743
14	0x33	0.075167
15	0x4e	0.11496129
16	0x28	0.058954507
17	0xf7	-0.013264764
18	0xe4	-0.041268155
19	0x28	0.058954507
20	0x02	0.0029477254
21	0x38	0.08253631
22	0x4e	0.11496129
23	0xbd	-0.0987488
24	0x15	0.030951116
25	0xf4	-0.017686352
26	0xf2	-0.020634077
27	0x62	0.14443853
28	0x47	0.104644254
29	0x01	0.0014738627
30	0xf4	-0.017686352
31	0xeb	-0.030951116
32	0xa6	-0.13264763
33	0x44	0.10022266
34	0x00	0.0
35	0x21	0.04863747
36	0x15	0.030951116
37	0xcf	-0.07221927
38	0xeb	-0.030951116
39	0xad	-0.122330606
40	0xb4	-0.11201356
41	0x46	0.10317039
42	0x14	0.029477254
43	0x40	0.09432721
44	0x3a	0.085484035
45	0xbf	-0.09580107
46	0xf7	-0.013264764
47	0xe1	-0.045689743
48	0xe9	-0.03389884
49	0x1a	0.03832043
50	0x32	0.073693134
51	0x06	0.008843176
52	0xb8	-0.10611811
53	0xb6	-0.10906584
54	0x44	0.10022266
55	0xe6	-0.03832043
56	0x2c	0.06484996
57	0x11	0.025055666
58	0x06	0.008843176
59	0x21	0.04863747
60	0xf2	-0.020634077
61	0x2f	0.06927155
62	0xc8	-0.08253631
63	0xbf	-0.09580107
64	0x34	0.07664086
65	0x0d	0.019160215
66	0xd6	-0.061902232
67	0x1e	0.04421588
68	0xc4	-0.08843176
69	0x38	0.08253631
70	0x4a	0.10906584
71	0xef	-0.025055666
72	0xf7	-0.013264764
73	0xac	-0.123804465
74	0x48	0.10611811
75	0xe5	-0.039794292
76	0xd0	-0.07074541
77	0xf4	-0.017686352
78	0xbc	-0.10022266
79	0xb5	-0.110539705
80	0xc0	-0.09432721
81	0xfb	-0.0073693134
82	0xb8	-0.10611811
83	0x19	0.036846567
84	0x43	0.0987488
85	0x15	0.030951116
86	0x50	0.117909014
87	0xc1	-0.09285335
88	0xe6	-0.03832043
89	0x1e	0.04421588
90	0xd0	-0.07074541
91	0xfb	-0.0073693134
92	0x0b	0.01621249
93	0x4a	0.10906584
94	0xf3	-0.019160215
95	0xdf	-0.04863747
96	0xc8	-0.08253631
97	0xd1	-0.06927155
98	0x3c	0.08843176
99	0xf2	-0.020634077
100	0x3b	0.0869579
101	0x44	0.10022266
102	0xd5	-0.0633761
103	0x25	0.05453292
104	0xfe	-0.0029477254
105	0xdd	-0.051585194
106	0xe6	-0.03832043
107	0xbc	-0.10022266
108	0x01	0.0014738627
109	0xc8	-0.08253631
110	0x31	0.07221927
111	0xf6	-0.014738627
112	0xde	-0.05011133
113	0x51	0.11938287
114	0x2b	0.0633761
115	0x16	0.03242498
116	0xe0	-0.047163606
117	0xe8	-0.035372704
118	0x4f	0.116435155
119	0x2e	0.06779768
120	0xeb	-0.030951116
121	0x2f	0.06927155
122	0xa2	-0.1385431
123	0x16	0.03242498
124	0x0d	0.019160215
125	0xb1	-0.116435155
126	0xd6	-0.061902232
127	0xbc	-0.10022266
128	0xca	-0.079588585
129	0xc8	-0.08253631
130	0x4c	0.11201356
131	0xcc	-0.07664086
132	0xcb	-0.07811472
133	0xfd	-0.004421588
134	0xac	-0.123804465
135	0x39	0.08401017
136	0xf0	-0.023581803
137	0x0a	0.014738627
138	0xd8	-0.058954507
139	0xd8	-0.058954507
140	0xef	-0.025055666
141	0x46	0.10317039
142	0x30	0.07074541
143	0x05	0.0073693134
144	0x15	0.030951116
145	0xd0	-0.07074541
146	0xd6	-0.061902232
147	0x10	0.023581803
148	0xac	-0.123804465
149	0x21	0.04863747
150	0x03	0.004421588
151	0xc2	-0.091379486
152	0xeb	-0.030951116
153	0x5d	0.13706923
154	0x56	0.1267522
155	0xff	-0.0014738627
156	0x3b	0.0869579
157	0xe7	-0.036846567
158	0x1c	0.041268155
159	0xf5	-0.01621249
160	0x33	0.075167
161	0xe6	-0.03832043
162	0xb6	-0.10906584
163	0xde	-0.05011133
164	0xca	-0.079588585
165	0xf8	-0.011790901
166	0x04	0.0058954507
167	0x42	0.09727494
168	0xbe	-0.09727494
169	0x46	0.10317039
170	0x06	0.008843176
171	0x1d	0.042742018
172	0xf5	-0.01621249
173	0x54	0.123804465
174	0x32	0.073693134
175	0xe5	-0.039794292
176	0xbb	-0.10169652
177	0xdd	-0.051585194
178	0x27	0.057480644
179	0xe4	-0.041268155
180	0x12	0.026529528
181	0xbb	-0.10169652
182	0xb3	-0.11348742
183	0xd2	-0.06779768
184	0x35	0.07811472
185	0x3b	0.0869579
186	0x2f	0.06927155
187	0x33	0.075167
188	0xc3	-0.08990562
189	0xcd	-0.075167
190	0x52	0.12085674
191	0x2a	0.061902232
192	0x36	0.079588585
193	0xc0	-0.09432721
194	0x4b	0.110539705
195	0x38	0.08253631
196	0x3e	0.091379486
197	0xc2	-0.091379486
198	0x36	0.079588585
199	0xcb	-0.07811472
200	0x0b	0.01621249
201	0xc3	-0.08990562
202	0x0d	0.019160215
203	0xe6	-0.03832043
204	0x13	0.02800339
205	0xd9	-0.057480644
206	0x42	0.09727494
207	0xfe	-0.0029477254
208	0xe2	-0.04421588
209	0x2e	0.06779768
210	0x49	0.10759197
211	0x3d	0.08990562
212	0xda	-0.05600678
213	0x19	0.036846567
214	0x14	0.029477254
215	0xfa	-0.008843176
216	0xd5	-0.0633761
217	0x31	0.07221927
218	0x09	0.013264764
219	0xcb	-0.07811472
220	0xb6	-0.10906584
221	0xed	-0.02800339
222	0xf6	-0.014738627
223	0xee	-0.026529528
224	0x17	0.03389884
225	0xb9	-0.104644254
226	0xf7	-0.013264764
227	0xdc	-0.053059056
228	0xee	-0.026529528
229	0xb3	-0.11348742
230	0x09	0.013264764
231	0xb6	-0.10906584
232	0xd7	-0.06042837
233	0xf0	-0.023581803
234	0x21	0.04863747
235	0x24	0.053059056
236	0x31	0.07221927
237	0x23	0.051585194
238	0x29	0.06042837
239	0xf1	-0.02210794
240	0xf4	-0.017686352
241	0xbd	-0.0987488
242	0x34	0.07664086
243	0xdc	-0.053059056
244	0xb8	-0.10611811
245	0x28	0.058954507
246	0x27	0.057480644
247	0xf7	-0.013264764
248	0xf2	-0.020634077
249	0xef	-0.025055666
250	0x3a	0.085484035
251	0xf7	-0.013264764
252	0x3d	0.08990562
253	0xd2	-0.06779768
254	0xa2	-0.1385431
255	0x0f	0.02210794

model_3/dense_11/MatMul i1 [10, 128] scale=0.0017803854 zero_point=0
0	0xdc	-0.06409387
1	0x9c	-0.17803854
2	0x46	0.12462698
3	0x16	0.039168477
4	0xe9	-0.040948864
5	0xd8	-0.07121541
6	0xf9	-0.012462698
7	0x5c	0.16379546
8	0xf7	-0.016023468
9	0x08	0.014243083
10	0xdb	-0.065874256
11	0xc9	-0.09792119
12	0xed	-0.033827323
13	0x27	0.06943503
14	0xc5	-0.10504274
15	0xdf	-0.05875272
16	0xa5	-0.16201507
17	0x27	0.06943503
18	0xd4	-0.078336954
19	0xf1	-0.026705781
20	0x6d	0.19406201
21	0xb2	-0.13887006
22	0x28	0.07121541
23	0x1b	0.048070405
24	0x57	0.15489353
25	0xf3	-0.02314501
26	0x3c	0.106823124
27	0xb7	-0.12996814
28	0x5a	0.16023469
29	0x30	0.0854585
30	0x36	0.09614081
31	0x14	0.035607707
32	0x53	0.14777198
33	0xd7	-0.072995804
34	0xe1	-0.055191945
35	0xaf	-0.14421122
36	0xf6	-0.017803853
37	0xd8	-0.07121541
38	0xb7	-0.12996814
39	0x5c	0.16379546
40	0xcb	-0.094360426
41	0xff	-0.0017803854
42	0x12	0.032046936
43	0xf7	-0.016023468
44	0x21	0.05875272
45	0x60	0.170917
46	0x02	0.0035607708
47	0xb0	-0.14243083
48	0x55	0.15133275
49	0xc3	-0.10860351
50	0xd3	-0.080117345
51	0xc9	-0.09792119
52	0x4b	0.1335289
53	0x10	0.028486166
54	0x03	0.0053411564
55	0x2d	0.080117345
56	0xd4	-0.078336954
57	0x2d	0.080117345
58	0x4e	0.13887006
59	0xbb	-0.12284659
60	0x38	0.09970158
61	0xd7	-0.072995804
62	0xbf	-0.11572505
63	0x39	0.10148197
64	0x06	0.010682313
65	0x6c	0.19228162
66	0xab	-0.15133275
67	0xff	-0.0017803854
68	0x45	0.12284659
69	0xff	-0.0017803854
70	0xeb	-0.037388094
71	0x45	0.12284659
72	0x65	0.17981893
73	0x18	0.04272925
74	0xd3	-0.080117345
75	0x04	0.0071215415
76	0xd0	-0.0854585
77	0xe0	-0.056972332
78	0x07	0.012462698
79	0x5c	0.16379546
80	0xb1	-0.14065045
81	0xa2	-0.16735622
82	0xeb	-0.037388094
83	0xaf	-0.14421122
84	0xe1	-0.055191945
85	0xb9	-0.12640736
86	0x26	0.06765465
87	0xe0	-0.056972332
88	0x50	0.14243083
89	0xc2	-0.11038389
90	0x56	0.15311314
91	0x22	0.060533103
92	0x57	0.15489353
93	0xbc	-0.121066205
94	0x38	0.09970158
95	0x5b	0.16201507
96	0x61	0.17269738
97	0x12	0.032046936
98	0xc4	-0.106823124
99	0xf8	-0.014243083
100	0x32	0.08901927
101	0x0c	0.021364626
102	0x00	0.0
103	0xd3	-0.080117345
104	0x25	0.065874256
105	0xf1	-0.026705781
106	0xea	-0.039168477
107	0x1d	0.051631175
108	0x39	0.10148197
109	0xdd	-0.06231349
110	0x5e	0.16735622
111	0xa3	-0.16557585
112	0xda	-0.06765465
113	0x4a	0.13174851
114	0xba	-0.12462698
115	0xf2	-0.024925396
116	0x64	0.17803854
117	0x53	0.14777198
118	0x4e	0.13887006
119	0x06	0.010682313
120	0x05	0.008901927
121	0x55	0.15133275
122	0xd0	-0.0854585
123	0xa6	-0.16023469
124	0xf9	-0.012462698
125	0xdb	-0.065874256
126	0x2f	0.08367811
127	0xed	-0.033827323
128	0x44	0.121066205
129	0x0c	0.021364626
130	0xa9	-0.15489353
131	0x5f	0.16913661
132	0xad	-0.14777198
133	0xb3	-0.13708967
134	0x06	0.010682313
135	0x21	0.05875272
136	0xe0	-0.056972332
137	0x51	0.14421122
138	0xfc	-0.0071215415
139	0x0d	0.02314501
140	0xb9	-0.12640736
141	0x03	0.0053411564
142	0x35	0.094360426
143	0xc6	-0.10326235
144	0xa0	-0.170917
145	0x37	0.09792119
146	0xed	-0.033827323
147	0xb4	-0.1353093
148	0x3f	0.11216428
149	0x56	0.15311314
150	0x93	-0.19406201
151	0x52	0.14599161
152	0xb5	-0.1335289
153	0xa3	-0.16557585
154	0x15	0.037388094
155	0x45	0.12284659
156	0xac	-0.14955238
157	0xf3	-0.02314501
158	0xe2	-0.053411562
159	0x58	0.15667391
160	0x49	0.12996814
161	0xff	-0.0017803854
162	0x7f	0.22610894
163	0x91	-0.19762278
164	0xde	-0.060533103
165	0x01	0.0017803854
166	0xda	-0.06765465
167	0xb7	-0.12996814
168	0x67	0.1833797
169	0xfb	-0.008901927
170	0x59	0.1584543
171	0xcf	-0.087238885
172	0x28	0.07121541
173	0x5f	0.16913661
174	0xfc	-0.0071215415
175	0x5f	0.16913661
176	0x1d	0.051631175
177	0x9e	-0.17447777
178	0x5a	0.16023469
179	0x49	0.12996814
180	0xfc	-0.0071215415
181	0x07	0.012462698
182	0x32	0.08901927
183	0xe1	-0.055191945
184	0xf6	-0.017803853
185	0x06	0.010682313
186	0x52	0.14599161
187	0xc1	-0.11216428
188	0x3a	0.10326235
189	0xdb	-0.065874256
190	0x50	0.14243083
191	0x29	0.072995804
192	0xa3	-0.16557585
193	0xc5	-0.10504274
194	0x0a	0.017803853
195	0x4c	0.1353093
196	0x2a	0.07477619
197	0xeb	-0.037388094
198	0xa9	-0.15489353
199	0x2e	0.08189773
200	0x42	0.11750544
201	0xbe	-0.11750544
202	0xdc	-0.06409387
203	0x03	0.0053411564
204	0x44	0.121066205
205	0xb3	-0.13708967
206	0x19	0.044509634
207	0x0b	0.019584239
208	0x46	0.12462698
209	0xc1	-0.11216428
210	0x53	0.14777198
211	0x04	0.0071215415
212	0xf4	-0.021364626
213	0x23	0.06231349
214	0xb8	-0.12818775
215	0x23	0.06231349
216	0x4c	0.1353093
217	0xab	-0.15133275
218	0x0a	0.017803853
219	0x26	0.06765465
220	0xac	-0.14955238
221	0x35	0.094360426
222	0x0c	0.021364626
223	0xe9	-0.040948864
224	0xc3	-0.10860351
225	0x31	0.087238885
226	0x30	0.0854585
227	0xb7	-0.12996814
228	0xfd	-0.0053411564
229	0x1e	0.053411562
230	0xe5	-0.048070405
231	0xe6	-0.04629002
232	0xf7	-0.016023468
233	0x00	0.0
234	0x1b	0.048070405
235	0x72	0.20296393
236	0xb7	-0.12996814
237	0x6b	0.19050124
238	0xb7	-0.12996814
239	0xaf	-0.14421122
240	0xef	-0.030266551
241	0xd7	-0.072995804
242	0xbd	-0.11928582
243	0x36	0.09614081
244	0x0e	0.024925396
245	0xf8	-0.014243083
246	0xc4	-0.106823124
247	0xbc	-0.121066205
248	0xfa	-0.010682313
249	0x51	0.14421122
250	0x5f	0.16913661
251	0xf9	-0.012462698
252	0x18	0.04272925
253	0x9c	-0.17803854
254	0x43	0.11928582
255	0xc9	-0.09792119
