naver_movie_rate_quantized_model.tflite (tflite, 14416 bytes, 7 tensors)

dense_8/bias f4 [32]
0	0xbe0c2616	-0.13686404
1	0xbdeca23a	-0.1155438
2	0xbe059daf	-0.13048433
3	0xbc64870d	-0.013948214
4	0xbdd6a15d	-0.10479996
5	0xbe0c4865	-0.13699491
6	0x3ea44f4f	0.32091758
7	0xbe03f985	-0.12888153
8	0x3db6e88e	0.08931075
9	0x3e949608	0.29020715
10	0xbdd13230	-0.10214651
11	0x3e8e757d	0.2782401
12	0xbdb88d0b	-0.09011277
13	0x3d9143c8	0.07093006
14	0x3b6690dc	0.0035181558
15	0x3d8961cb	0.06708106
16	0xbde8a8c4	-0.113603145
17	0xbdf5aa67	-0.11995392
18	0xbdab507d	-0.08364961
19	0x3effcca3	0.49960813
20	0x3e9c9849	0.30584934
21	0xbdb3345d	-0.08750222
22	0x3e8ed9ae	0.2790045
23	0x3dfe8716	0.12428109
24	0xbe352f66	-0.17693862
25	0x3bf8c480	0.007591784
26	0xbf03dc15	-0.51507694
27	0xbe32f84f	-0.17477535
28	0x3c8fa5d2	0.017535124
29	0xbd977000	-0.07394409
30	0xbdc4cf3a	-0.09609838
31	0xbda7f71b	-0.082014285

dense_7/bias f4 [64]
0	0xbc616de5	-0.013759111
1	0xbc3698d1	-0.011144833
2	0xbcfed3c0	-0.03110683
3	0xbba29aab	-0.0049622855
4	0xbda8d733	-0.08244171
5	0xbd7d8348	-0.061892778
6	0xbdb21220	-0.08694863
7	0xbe05758a	-0.13033119
8	0xbdceea78	-0.10103315
9	0x3db53d19	0.08849544
10	0xbe17a7d9	-0.14810123
11	0xbdfa66e3	-0.12226655
12	0xbe09f6c1	-0.13473035
13	0xbda534ed	-0.080667354
14	0xbe22c61e	-0.15895888
15	0xbd45b455	-0.04826768
16	0xbdf7084f	-0.120621316
17	0xbd72341c	-0.059131727
18	0xbd8f9010	-0.070098996
19	0xbd20a423	-0.039219033
20	0xbdac2652	-0.084057465
21	0x3c6fb390	0.014630213
22	0xbcaf40ac	-0.021393143
23	0xbdc947e0	-0.09828162
24	0xbde54e3b	-0.11196562
25	0xbcd3a5c8	-0.025835887
26	0xbdcc6a98	-0.09981269
27	0xbd9d1526	-0.07670049
28	0xbcef2727	-0.029193474
29	0xbb21871e	-0.0024647187
30	0x3a90e958	0.001105587
31	0xbd316e2d	-0.043317962
32	0xbe13bb03	-0.14426808
33	0x3dac5fc8	0.08416706
34	0xbdd3dac9	-0.10344464
35	0xbe1c23ac	-0.15247983
36	0xbda695a9	-0.08134014
37	0xbdb4252e	-0.08796154
38	0xbd961475	-0.073281206
39	0xbe12da40	-0.14341068
40	0xbdfb7030	-0.122772574
41	0xbaa25085	-0.0012383616
42	0xbd808817	-0.06275957
43	0xbe0001ef	-0.12500738
44	0xbdc1e9e0	-0.09468436
45	0xbe02bd87	-0.12767611
46	0xbe255c13	-0.16148405
47	0xbdac27f8	-0.08406061
48	0xbdf2c194	-0.11853328
49	0xbe221115	-0.15826829
50	0xbd6494a0	-0.055805802
51	0xbdea26be	-0.11433171
52	0x3d9e56b7	0.07731383
53	0xbd5c436a	-0.05377523
54	0xbe2dad95	-0.16960748
55	0xbd823e44	-0.063595325
56	0xbc8e5cb9	-0.017378198
57	0xbdf10d27	-0.11770087
58	0xbb7b04c7	-0.0038302408
59	0xbcb268d4	-0.021778502
60	0xbc97bfc1	-0.018524053
61	0xbda5a7ee	-0.08088671
62	0xbdb99c97	-0.0906307
63	0xbd800b36	-0.06252138

dense_6/bias f4 [100]
0	0xbc7d1de2	-0.015449019
1	0xbdcb8756	-0.09937923
2	0xbe434535	-0.19069369
3	0xbe0b834f	-0.13624309
4	0xbec6fa64	-0.38862908
5	0xbde688a6	-0.11256532
6	0xbda2890d	-0.079362966
7	0xbdd7216d	-0.10504422
8	0xbe022724	-0.12710243
9	0xbd7ca6ad	-0.061682392
10	0xbe9f04f0	-0.31058455
11	0xbe50eb18	-0.20402181
12	0xbd538b10	-0.051646292
13	0xbe3b1f25	-0.182736
14	0xbde4985b	-0.11161872
15	0x00000000	0.0
16	0xbdfcdc0f	-0.1234666
17	0xbe980e3d	-0.29698363
18	0xbd8b92b6	-0.06815092
19	0xbd9f1510	-0.07767689
20	0xbdfaa8cc	-0.12239227
21	0xbdbfb25d	-0.09360192
22	0xbde33a22	-0.11095072
23	0xbeac7358	-0.3368175
24	0xbeba625c	-0.36403167
25	0xbe0b34b2	-0.1359432
26	0xbe194e19	-0.14971198
27	0xbe5b2a5e	-0.2140288
28	0xbdc45fd8	-0.09588593
29	0xbdc50d91	-0.09621728
30	0xbea40278	-0.32033134
31	0xbdeadabb	-0.11467501
32	0xbdeebe49	-0.11657388
33	0xbea8a214	-0.32936156
34	0xbda357d6	-0.07975738
35	0xbe0c352e	-0.13692161
36	0xbe0926fe	-0.1339378
37	0xbdc41cf9	-0.095758386
38	0xbe036de9	-0.12834896
39	0xbe0309f6	-0.12796769
40	0xbeb8a47e	-0.36062998
41	0xbd0f9d16	-0.03506192
42	0xbcbefe99	-0.023314761
43	0xbd5eada8	-0.05436483
44	0xbdbeb347	-0.09311538
45	0xbd3bdfff	-0.045867916
46	0xbd943074	-0.07235804
47	0xbea999ce	-0.33125156
48	0xbd8d5fbf	-0.06903028
49	0xbdae95ed	-0.0852469
50	0xbde3fd91	-0.11132348
51	0xbdb531de	-0.08847402
52	0xbd7c853f	-0.06165051
53	0x3c736194	0.014854807
54	0xbd880925	-0.06642369
55	0xbe1311b1	-0.14362217
56	0xbe577ce6	-0.21043739
57	0xbdd94e5d	-0.1061065
58	0xbddc6a33	-0.107624434
59	0xbda7208e	-0.08160506
60	0xbcd2f111	-0.025749715
61	0xbdd0beeb	-0.10192665
62	0xbda03d60	-0.07824206
63	0xbde303d8	-0.110847175
64	0xbd512d9d	-0.05106889
65	0xbd9e9972	-0.07744111
66	0xbea24156	-0.31690472
67	0xbdc4cfb0	-0.09609926
68	0xbdaf49dd	-0.0855901
69	0xbf146ecf	-0.5798158
70	0xbd1feb44	-0.039042726
71	0xbec43b88	-0.3832667
72	0xbee80f3d	-0.45324126
73	0xbe1af912	-0.15134075
74	0xbd653ec0	-0.055968046
75	0xbe5360ac	-0.20642346
76	0xbe295096	-0.16534647
77	0xbe021751	-0.12704207
78	0xbe342813	-0.17593412
79	0xbdedc010	-0.11608899
80	0xbd897531	-0.067118056
81	0xbdbf21f3	-0.09332647
82	0xbe0b6f6e	-0.13616726
83	0xbdba5f4f	-0.0910021
84	0xbdb686bf	-0.089124195
85	0xbd463d98	-0.048398584
86	0xbe6825cc	-0.22670668
87	0xbdc1072c	-0.09425196
88	0xbe7f3935	-0.24924167
89	0xbdc9467c	-0.09827897
90	0xbd828703	-0.06373408
91	0xbe0e1250	-0.13874173
92	0xbddeb046	-0.10873465
93	0xbdbd3672	-0.092389
94	0xbdaf9c7b	-0.08574768
95	0xbd97fb68	-0.07420999
96	0xbca8fe1b	-0.02062898
97	0xbdcd55d0	-0.10026133
98	0xbd634e1e	-0.05549442
99	0xbe00500f	-0.1253054

sequential_2/dense_6/MatMul i1 [100, 28] scale=0.009557085 zero_point=0
0	0xf4	-0.11468502
1	0xea	-0.21025588
2	0xfb	-0.047785424
3	0x16	0.21025588
4	0x02	0.01911417
5	0xfd	-0.028671255
6	0x09	0.086013764
7	0x0d	0.124242105
8	0x0b	0.10512794
9	0xff	-0.009557085
10	0x0c	0.11468502
11	0xf4	-0.11468502
12	0x11	0.16247045
13	0xfc	-0.03822834
14	0x0d	0.124242105
15	0x00	0.0
16	0xf7	-0.086013764
17	0xef	-0.16247045
18	0xf6	-0.09557085
19	0x10	0.15291336
20	0xf4	-0.11468502
21	0xfa	-0.05734251
22	0xf6	-0.09557085
23	0xea	-0.21025588
24	0x05	0.047785424
25	0x06	0.05734251
26	0xef	-0.16247045
27	0xef	-0.16247045
28	0xe6	-0.24848421
29	0xf2	-0.1337992
30	0xef	-0.16247045
31	0xfa	-0.05734251
32	0xf9	-0.0668996
33	0xec	-0.1911417
34	0x0d	0.124242105
35	0x1e	0.28671256
36	0xd7	-0.3918405
37	0x09	0.086013764
38	0x14	0.1911417
39	0xd8	-0.3822834
40	0x13	0.18158461
41	0x08	0.07645668
42	0x04	0.03822834
43	0x0b	0.10512794
44	0xf1	-0.14335628
45	0x09	0.086013764
46	0x0e	0.1337992
47	0xf2	-0.1337992
48	0xef	-0.16247045
49	0xf9	-0.0668996
50	0x09	0.086013764
51	0x2f	0.449183
52	0xf6	-0.09557085
53	0xeb	-0.2006988
54	0x00	0.0
55	0x01	0.009557085
56	0xf2	-0.1337992
57	0xe0	-0.30582672
58	0x0a	0.09557085
59	0x0d	0.124242105
60	0x03	0.028671255
61	0xed	-0.18158461
62	0x01	0.009557085
63	0x1a	0.24848421
64	0xfc	-0.03822834
65	0x09	0.086013764
66	0xe7	-0.23892713
67	0xeb	-0.2006988
68	0xfe	-0.01911417
69	0xfe	-0.01911417
70	0xdb	-0.35361215
71	0xeb	-0.2006988
72	0xee	-0.17202753
73	0x09	0.086013764
74	0xf0	-0.15291336
75	0x2a	0.4013976
76	0x01	0.009557085
77	0x02	0.01911417
78	0x17	0.21981296
79	0xf0	-0.15291336
80	0xe9	-0.21981296
81	0x17	0.21981296
82	0xef	-0.16247045
83	0xfd	-0.028671255
84	0xf5	-0.10512794
85	0xf7	-0.086013764
86	0xf6	-0.09557085
87	0x02	0.01911417
88	0xf2	-0.1337992
89	0xee	-0.17202753
90	0x0b	0.10512794
91	0x05	0.047785424
92	0x0c	0.11468502
93	0x03	0.028671255
94	0xfc	-0.03822834
95	0xfd	-0.028671255
96	0x07	0.0668996
97	0x0a	0.09557085
98	0x01	0.009557085
99	0xec	-0.1911417
100	0x0a	0.09557085
101	0xfc	-0.03822834
102	0x06	0.05734251
103	0xf4	-0.11468502
104	0x04	0.03822834
105	0xe4	-0.2675984
106	0x01	0.009557085
107	0xff	-0.009557085
108	0x00	0.0
109	0x06	0.05734251
110	0x0e	0.1337992
111	0xef	-0.16247045
112	0x74	1.1086218
113	0x2a	0.4013976
114	0xff	-0.009557085
115	0x04	0.03822834
116	0xf7	-0.086013764
117	0xe1	-0.29626963
118	0xf7	-0.086013764
119	0xf3	-0.124242105
120	0xec	-0.1911417
121	0xeb	-0.2006988
122	0x17	0.21981296
123	0xfd	-0.028671255
124	0xe0	-0.30582672
125	0xd0	-0.4587401
126	0xe2	-0.28671256
127	0x03	0.028671255
128	0xe6	-0.24848421
129	0x0c	0.11468502
130	0xf6	-0.09557085
131	0xd1	-0.449183
132	0xe4	-0.2675984
133	0xea	-0.21025588
134	0xf5	-0.10512794
135	0xe5	-0.2580413
136	0xe3	-0.27715546
137	0xe3	-0.27715546
138	0xec	-0.1911417
139	0xe9	-0.21981296
140	0x07	0.0668996
141	0xf6	-0.09557085
142	0x28	0.3822834
143	0x23	0.334498
144	0x13	0.18158461
145	0x0a	0.09557085
146	0xfa	-0.05734251
147	0xef	-0.16247045
148	0x14	0.1911417
149	0x04	0.03822834
150	0xe7	-0.23892713
151	0x08	0.07645668
152	0x04	0.03822834
153	0x05	0.047785424
154	0xdc	-0.34405506
155	0x07	0.0668996
156	0x01	0.009557085
157	0x0f	0.14335628
158	0xe4	-0.2675984
159	0xfb	-0.047785424
160	0xd6	-0.4013976
161	0xfe	-0.01911417
162	0xf0	-0.15291336
163	0xff	-0.009557085
164	0x14	0.1911417
165	0xfb	-0.047785424
166	0x06	0.05734251
167	0xeb	-0.2006988
168	0x04	0.03822834
169	0xe2	-0.28671256
170	0xee	-0.17202753
171	0xf7	-0.086013764
172	0x10	0.15291336
173	0x02	0.01911417
174	0x07	0.0668996
175	0xee	-0.17202753
176	0xec	-0.1911417
177	0xed	-0.18158461
178	0xf4	-0.11468502
179	0xef	-0.16247045
180	0x05	0.047785424
181	0xef	-0.16247045
182	0x13	0.18158461
183	0x11	0.16247045
184	0x01	0.009557085
185	0x0a	0.09557085
186	0xec	-0.1911417
187	0x03	0.028671255
188	0xef	-0.16247045
189	0x0b	0.10512794
190	0xfd	-0.028671255
191	0x11	0.16247045
192	0xf3	-0.124242105
193	0xef	-0.16247045
194	0xf8	-0.07645668
195	0xfa	-0.05734251
196	0xe2	-0.28671256
197	0xed	-0.18158461
198	0xfc	-0.03822834
199	0xfc	-0.03822834
200	0x0c	0.11468502
201	0xef	-0.16247045
202	0x00	0.0
203	0xf1	-0.14335628
204	0xfb	-0.047785424
205	0xf4	-0.11468502
206	0x13	0.18158461
207	0x02	0.01911417
208	0x01	0.009557085
209	0x15	0.2006988
210	0xeb	-0.2006988
211	0x02	0.01911417
212	0x19	0.23892713
213	0x02	0.01911417
214	0x0d	0.124242105
215	0xec	-0.1911417
216	0x05	0.047785424
217	0xea	-0.21025588
218	0x0e	0.1337992
219	0xff	-0.009557085
220	0x02	0.01911417
221	0xfd	-0.028671255
222	0xf6	-0.09557085
223	0x04	0.03822834
224	0x04	0.03822834
225	0xf1	-0.14335628
226	0xe3	-0.27715546
227	0xc5	-0.56386805
228	0x0b	0.10512794
229	0xf5	-0.10512794
230	0xf3	-0.124242105
231	0xf8	-0.07645668
232	0x01	0.009557085
233	0x02	0.01911417
234	0xf1	-0.14335628
235	0x03	0.028671255
236	0xee	-0.17202753
237	0x02	0.01911417
238	0x10	0.15291336
239	0xea	-0.21025588
240	0x0a	0.09557085
241	0xfb	-0.047785424
242	0x12	0.17202753
243	0x0c	0.11468502
244	0xfd	-0.028671255
245	0x01	0.009557085
246	0x02	0.01911417
247	0xf2	-0.1337992
248	0xfe	-0.01911417
249	0xf5	-0.10512794
250	0x0e	0.1337992
251	0xf1	-0.14335628
252	0xe9	-0.21981296
253	0xe5	-0.2580413
254	0xfe	-0.01911417
255	0xf5	-0.10512794

sequential_2/dense_7/MatMul i1 [64, 100] scale=0.0064218002 zero_point=0
0	0x18	0.1541232
1	0xe1	-0.1990758
2	0xf5	-0.070639804
3	0x0c	0.0770616
4	0x1d	0.18623221
5	0x1f	0.1990758
6	0xfe	-0.0128436005
7	0x12	0.115592405
8	0x1a	0.16696681
9	0x01	0.0064218002
10	0x02	0.0128436005
11	0xf0	-0.102748804
12	0xe7	-0.160545
13	0xf8	-0.051374402
14	0xee	-0.115592405
15	0xe4	-0.1798104
16	0xf6	-0.064218
17	0x06	0.0385308
18	0xf5	-0.070639804
19	0xf5	-0.070639804
20	0x1b	0.1733886
21	0xfa	-0.0385308
22	0x1b	0.1733886
23	0x10	0.102748804
24	0x03	0.0192654
25	0x18	0.1541232
26	0x20	0.20549761
27	0x01	0.0064218002
28	0xea	-0.14127961
29	0xfb	-0.032109
30	0x07	0.0449526
31	0xeb	-0.1348578
32	0x10	0.102748804
33	0x1c	0.1798104
34	0x0f	0.09632701
35	0xf1	-0.09632701
36	0xed	-0.1220142
37	0x1a	0.16696681
38	0x18	0.1541232
39	0xef	-0.1091706
40	0xfc	-0.025687201
41	0xe2	-0.19265401
42	0xe2	-0.19265401
43	0x0f	0.09632701
44	0xf9	-0.0449526
45	0xdf	-0.21191941
46	0xf0	-0.102748804
47	0x0c	0.0770616
48	0xf7	-0.057796203
49	0x02	0.0128436005
50	0x0f	0.09632701
51	0xef	-0.1091706
52	0x11	0.1091706
53	0xe8	-0.1541232
54	0xf9	-0.0449526
55	0x12	0.115592405
56	0x16	0.14127961
57	0xf1	-0.09632701
58	0xf7	-0.057796203
59	0xf6	-0.064218
60	0xf8	-0.051374402
61	0xed	-0.1220142
62	0xfb	-0.032109
63	0x06	0.0385308
64	0xe1	-0.1990758
65	0x07	0.0449526
66	0x23	0.224763
67	0xee	-0.115592405
68	0x01	0.0064218002
69	0x08	0.051374402
70	0x0e	0.0899052
71	0x0d	0.083483405
72	0x1d	0.18623221
73	0xfa	-0.0385308
74	0x07	0.0449526
75	0xf7	-0.057796203
76	0x17	0.14770141
77	0xe4	-0.1798104
78	0x03	0.0192654
79	0xf9	-0.0449526
80	0x0e	0.0899052
81	0xfe	-0.0128436005
82	0xf7	-0.057796203
83	0x2d	0.28898102
84	0x1c	0.1798104
85	0xf9	-0.0449526
86	0xf7	-0.057796203
87	0x13	0.1220142
88	0x0b	0.070639804
89	0xfb	-0.032109
90	0x03	0.0192654
91	0x08	0.051374402
92	0xf4	-0.0770616
93	0xfd	-0.0192654
94	0xe4	-0.1798104
95	0x1b	0.1733886
96	0x15	0.1348578
97	0x01	0.0064218002
98	0xeb	-0.1348578
99	0x15	0.1348578
100	0xf5	-0.070639804
101	0xe0	-0.20549761
102	0xe3	-0.18623221
103	0x00	0.0
104	0x0b	0.070639804
105	0xfa	-0.0385308
106	0x00	0.0
107	0x03	0.0192654
108	0x13	0.1220142
109	0xdd	-0.224763
110	0x0d	0.083483405
111	0x07	0.0449526
112	0xf3	-0.083483405
113	0x20	0.20549761
114	0x0f	0.09632701
115	0x17	0.14770141
116	0x0d	0.083483405
117	0x03	0.0192654
118	0xe4	-0.1798104
119	0xe9	-0.14770141
120	0xfb	-0.032109
121	0xfc	-0.025687201
122	0x0a	0.064218
123	0x1c	0.1798104
124	0xe0	-0.20549761
125	0x0a	0.064218
126	0x29	0.2632938
127	0xd8	-0.256872
128	0x0c	0.0770616
129	0xf8	-0.051374402
130	0xff	-0.0064218002
131	0xef	-0.1091706
132	0xd2	-0.29540282
133	0x24	0.23118481
134	0xf6	-0.064218
135	0x08	0.051374402
136	0x0b	0.070639804
137	0xe4	-0.1798104
138	0x0e	0.0899052
139	0xf2	-0.0899052
140	0x13	0.1220142
141	0xe3	-0.18623221
142	0xef	-0.1091706
143	0x14	0.128436
144	0x05	0.032109
145	0xdf	-0.21191941
146	0xe5	-0.1733886
147	0x15	0.1348578
148	0xfc	-0.025687201
149	0x19	0.160545
150	0xfd	-0.0192654
151	0x17	0.14770141
152	0x01	0.0064218002
153	0xeb	-0.1348578
154	0x14	0.128436
155	0xfc	-0.025687201
156	0xf6	-0.064218
157	0xfd	-0.0192654
158	0xf1	-0.09632701
159	0x08	0.051374402
160	0x12	0.115592405
161	0xfc	-0.025687201
162	0xff	-0.0064218002
163	0x02	0.0128436005
164	0x06	0.0385308
165	0x0b	0.070639804
166	0x2a	0.2697156
167	0x06	0.0385308
168	0x08	0.051374402
169	0x19	0.160545
170	0x0a	0.064218
171	0x26	0.2440284
172	0xda	-0.2440284
173	0xef	-0.1091706
174	0xed	-0.1220142
175	0x0d	0.083483405
176	0xf6	-0.064218
177	0x09	0.057796203
178	0x07	0.0449526
179	0xe9	-0.14770141
180	0xfd	-0.0192654
181	0x33	0.32751182
182	0xd4	-0.28255922
183	0xff	-0.0064218002
184	0x1f	0.1990758
185	0x09	0.057796203
186	0x22	0.2183412
187	0x1f	0.1990758
188	0x0c	0.0770616
189	0xfe	-0.0128436005
190	0x00	0.0
191	0x0f	0.09632701
192	0x11	0.1091706
193	0x17	0.14770141
194	0x0e	0.0899052
195	0x0b	0.070639804
196	0x0d	0.083483405
197	0xe9	-0.14770141
198	0x00	0.0
199	0xef	-0.1091706
200	0x19	0.160545
201	0xd6	-0.2697156
202	0xf3	-0.083483405
203	0xf6	-0.064218
204	0x20	0.20549761
205	0x00	0.0
206	0xf1	-0.09632701
207	0x03	0.0192654
208	0x17	0.14770141
209	0x09	0.057796203
210	0x0c	0.0770616
211	0xff	-0.0064218002
212	0x08	0.051374402
213	0x05	0.032109
214	0x14	0.128436
215	0xfa	-0.0385308
216	0x01	0.0064218002
217	0xff	-0.0064218002
218	0x00	0.0
219	0xe5	-0.1733886
220	0x0c	0.0770616
221	0x0b	0.070639804
222	0x12	0.115592405
223	0x15	0.1348578
224	0x2f	0.3018246
225	0x0d	0.083483405
226	0xe6	-0.16696681
227	0x1c	0.1798104
228	0x06	0.0385308
229	0xe9	-0.14770141
230	0x0f	0.09632701
231	0xfa	-0.0385308
232	0x07	0.0449526
233	0xf4	-0.0770616
234	0x03	0.0192654
235	0x0d	0.083483405
236	0xf7	-0.057796203
237	0xfa	-0.0385308
238	0x19	0.160545
239	0xfa	-0.0385308
240	0x11	0.1091706
241	0x17	0.14770141
242	0xf8	-0.051374402
243	0xdc	-0.23118481
244	0xee	-0.115592405
245	0xe0	-0.20549761
246	0xda	-0.2440284
247	0x1a	0.16696681
248	0xea	-0.14127961
249	0x0a	0.064218
250	0xf0	-0.102748804
251	0x0d	0.083483405
252	0xfa	-0.0385308
253	0xf6	-0.064218
254	0x0e	0.0899052
255	0xfb	-0.032109

sequential_2/dense_8/MatMul i1 [32, 64] scale=0.0052816602 zero_point=0
0	0xf6	-0.052816603
1	0xc9	-0.2904913
2	0xf5	-0.058098264
3	0xf7	-0.047534943
4	0xd5	-0.22711138
5	0x02	0.0105633205
6	0x01	0.0052816602
7	0xdc	-0.19013977
8	0xd6	-0.22182973
9	0xd8	-0.21126641
10	0xe2	-0.15844981
11	0xf8	-0.042253282
12	0x39	0.30105463
13	0xea	-0.11619653
14	0xca	-0.28520966
15	0x35	0.279928
16	0x0b	0.058098264
17	0xc8	-0.29577297
18	0xd4	-0.23239306
19	0x1a	0.13732317
20	0xec	-0.10563321
21	0x17	0.121478185
22	0x04	0.021126641
23	0xc9	-0.2904913
24	0x11	0.08978822
25	0xd7	-0.21654807
26	0x01	0.0052816602
27	0x12	0.095069885
28	0xd2	-0.24295637
29	0xca	-0.28520966
30	0x03	0.01584498
31	0x0e	0.07394324
32	0xe3	-0.15316814
33	0xfb	-0.026408302
34	0xe3	-0.15316814
35	0xe3	-0.15316814
36	0xaa	-0.45422277
37	0x1f	0.16373147
38	0x23	0.18485811
39	0xea	-0.11619653
40	0x1a	0.13732317
41	0x23	0.18485811
42	0xc4	-0.31689963
43	0x14	0.10563321
44	0x01	0.0052816602
45	0xdb	-0.19542143
46	0xf5	-0.058098264
47	0xe6	-0.13732317
48	0xde	-0.17957644
49	0x14	0.10563321
50	0xc8	-0.29577297
51	0xdb	-0.19542143
52	0xc6	-0.30633628
53	0xc4	-0.31689963
54	0x1c	0.14788648
55	0xba	-0.36971623
56	0xe1	-0.16373147
57	0xf4	-0.06337992
58	0xca	-0.28520966
59	0x05	0.026408302
60	0x06	0.03168996
61	0xf6	-0.052816603
62	0x06	0.03168996
63	0x02	0.0105633205
64	0xef	-0.08978822
65	0xf2	-0.07394324
66	0x13	0.10035154
67	0xea	-0.11619653
68	0xc8	-0.29577297
69	0xc8	-0.29577297
70	0xe7	-0.1320415
71	0xea	-0.11619653
72	0xca	-0.28520966
73	0x0b	0.058098264
74	0x0d	0.068661585
75	0xe7	-0.1320415
76	0x0b	0.058098264
77	0xe0	-0.16901313
78	0xe0	-0.16901313
79	0xec	-0.10563321
80	0x0c	0.06337992
81	0x10	0.084506564
82	0x12	0.095069885
83	0xde	-0.17957644
84	0xdb	-0.19542143
85	0xe3	-0.15316814
86	0xf2	-0.07394324
87	0xef	-0.08978822
88	0xc6	-0.30633628
89	0xe3	-0.15316814
90	0xed	-0.10035154
91	0xdb	-0.19542143
92	0xcc	-0.27464634
93	0xf5	-0.058098264
94	0xf2	-0.07394324
95	0xf8	-0.042253282
96	0xd8	-0.21126641
97	0xcb	-0.279928
98	0xf6	-0.052816603
99	0xfb	-0.026408302
100	0xd6	-0.22182973
101	0xf6	-0.052816603
102	0xd9	-0.20598476
103	0x34	0.27464634
104	0xe3	-0.15316814
105	0x18	0.12675984
106	0x06	0.03168996
107	0xfd	-0.01584498
108	0x11	0.08978822
109	0x0b	0.058098264
110	0x0d	0.068661585
111	0x19	0.1320415
112	0x08	0.042253282
113	0x10	0.084506564
114	0x21	0.17429478
115	0xc7	-0.30105463
116	0xcf	-0.25880134
117	0xcd	-0.26936468
118	0xf1	-0.07922491
119	0xec	-0.10563321
120	0xf6	-0.052816603
121	0xfe	-0.0105633205
122	0xde	-0.17957644
123	0xec	-0.10563321
124	0xc2	-0.32746294
125	0x01	0.0052816602
126	0x19	0.1320415
127	0x1c	0.14788648
128	0xef	-0.08978822
129	0x05	0.026408302
130	0xf8	-0.042253282
131	0xf5	-0.058098264
132	0x07	0.03697162
133	0x22	0.17957644
134	0xe7	-0.1320415
135	0xd9	-0.20598476
136	0xf2	-0.07394324
137	0x05	0.026408302
138	0xff	-0.0052816602
139	0x0f	0.07922491
140	0x15	0.11091486
141	0x19	0.1320415
142	0xdd	-0.18485811
143	0xe5	-0.14260483
144	0x0f	0.07922491
145	0xd4	-0.23239306
146	0x0f	0.07922491
147	0xfc	-0.021126641
148	0xff	-0.0052816602
149	0x1a	0.13732317
150	0xd0	-0.25351968
151	0x15	0.11091486
152	0x18	0.12675984
153	0xde	-0.17957644
154	0x14	0.10563321
155	0xdf	-0.17429478
156	0xc5	-0.31161794
157	0xdc	-0.19013977
158	0xcc	-0.27464634
159	0x12	0.095069885
160	0xdc	-0.19013977
161	0xfd	-0.01584498
162	0xf8	-0.042253282
163	0xed	-0.10035154
164	0xf8	-0.042253282
165	0x12	0.095069885
166	0xde	-0.17957644
167	0xdb	-0.19542143
168	0x28	0.21126641
169	0x08	0.042253282
170	0x0b	0.058098264
171	0xba	-0.36971623
172	0x27	0.20598476
173	0xf3	-0.068661585
174	0xf2	-0.07394324
175	0xd6	-0.22182973
176	0xe8	-0.12675984
177	0x0f	0.07922491
178	0xce	-0.264083
179	0xe9	-0.121478185
180	0x0a	0.052816603
181	0xc8	-0.29577297
182	0xc4	-0.31689963
183	0xfc	-0.021126641
184	0xd7	-0.21654807
185	0xfe	-0.0105633205
186	0xff	-0.0052816602
187	0x04	0.021126641
188	0xf4	-0.06337992
189	0x15	0.11091486
190	0x17	0.121478185
191	0x02	0.0105633205
192	0x0e	0.07394324
193	0xea	-0.11619653
194	0x19	0.1320415
195	0xcc	-0.27464634
196	0xd9	-0.20598476
197	0xfd	-0.01584498
198	0x40	0.33802626
199	0xc6	-0.30633628
200	0x01	0.0052816602
201	0xd6	-0.22182973
202	0x34	0.27464634
203	0x04	0.021126641
204	0xe5	-0.14260483
205	0xef	-0.08978822
206	0xf9	-0.03697162
207	0xd5	-0.22711138
208	0x2f	0.24823803
209	0xe2	-0.15844981
210	0xbf	-0.3433079
211	0x18	0.12675984
212	0x2a	0.22182973
213	0xf9	-0.03697162
214	0xeb	-0.11091486
215	0xc1	-0.3327446
216	0xf1	-0.07922491
217	0x19	0.1320415
218	0x30	0.25351968
219	0x28	0.21126641
220	0xb7	-0.3855612
221	0xe9	-0.121478185
222	0xba	-0.36971623
223	0x20	0.16901313
224	0x2a	0.22182973
225	0xe1	-0.16373147
226	0xfa	-0.03168996
227	0xf9	-0.03697162
228	0x1f	0.16373147
229	0xbe	-0.34858957
230	0xce	-0.264083
231	0x05	0.026408302
232	0xea	-0.11619653
233	0x37	0.2904913
234	0x1b	0.14260483
235	0xf9	-0.03697162
236	0x03	0.01584498
237	0xde	-0.17957644
238	0x16	0.11619653
239	0xd1	-0.24823803
240	0xf1	-0.07922491
241	0xdb	-0.19542143
242	0xea	-0.11619653
243	0xca	-0.28520966
244	0xe6	-0.13732317
245	0xdc	-0.19013977
246	0x09	0.047534943
247	0xb9	-0.37499788
248	0xe1	-0.16373147
249	0xc9	-0.2904913
250	0x38	0.29577297
251	0xe6	-0.13732317
252	0xf1	-0.07922491
253	0x02	0.0105633205
254	0xce	-0.264083
255	0xce	-0.264083

sequential_2/output/MatMul f4 [1, 32]
0	0xbe84d488	-0.25943398
1	0xbe4fdd2f	-0.20299219
2	0xbdd52796	-0.10407941
3	0x3daa802c	0.08325228
4	0xbdaf2cec	-0.0855349
5	0xbe0b15f7	-0.13582598
6	0x3e84064d	0.25786057
7	0xbdb3f709	-0.087873526
8	0x3c524e6c	0.01283608
9	0x3e571dc9	0.21007456
10	0x3a25874c	0.00063144113
11	0x3dd884fd	0.105722405
12	0xbe777c6c	-0.24168557
13	0x3dc4865e	0.09595941
14	0x3da93774	0.0826253
15	0x3d6f3090	0.058395922
16	0xbe1f9e70	-0.15587783
17	0xbe8e6c19	-0.27816847
18	0x3c9c0b03	0.01904822
19	0x3d7df7b7	0.062003817
20	0x3e2d0011	0.16894557
21	0xbe2f28c8	-0.171054
22	0x3db9b6ef	0.09068095
23	0x3b92cfb4	0.0044803265
24	0xbdd909fd	-0.10597608
25	0x3da8151e	0.08207153
26	0xbe3b2c43	-0.18278603
27	0x3ccca95d	0.024983102
28	0x3e17acf3	0.14812069
29	0xbe75d17a	-0.2400569
30	0xbd0a498f	-0.033761557
31	0xbe5d80a7	-0.21631108
