naver_movie_rate_model.tflite (tflite, 47916 bytes, 7 tensors)

dense_8/bias f4 [32]
00000000: 1626 0cbe 3aa2 ecbd af9d 05be 0d87 64bc
00000010: 5da1 d6bd 6548 0cbe 4f4f a43e 85f9 03be
00000020: 8ee8 b63d 0896 943e 3032 d1bd 7d75 8e3e
00000030: 0b8d b8bd c843 913d dc90 663b cb61 893d
00000040: c4a8 e8bd 67aa f5bd 7d50 abbd a3cc ff3e
00000050: 4998 9c3e 5d34 b3bd aed9 8e3e 1687 fe3d
00000060: 662f 35be 80c4 f83b 15dc 03bf 4ff8 32be
00000070: d2a5 8f3c 0070 97bd 3acf c4bd 1bf7 a7bd
-0.13686404 -0.1155438 -0.13048433 -0.013948214 -0.10479996 -0.13699491 0.32091758 -0.12888153
0.08931075 0.29020715 -0.10214651 0.2782401 -0.09011277 0.07093006 0.0035181558 0.06708106
-0.113603145 -0.11995392 -0.08364961 0.49960813 0.30584934 -0.08750222 0.2790045 0.12428109
-0.17693862 0.007591784 -0.51507694 -0.17477535 0.017535124 -0.07394409 -0.09609838 -0.082014285

dense_7/bias f4 [64]
00000000: e56d 61bc d198 36bc c0d3 febc ab9a a2bb
00000010: 33d7 a8bd 4883 7dbd 2012 b2bd 8a75 05be
00000020: 78ea cebd 193d b53d d9a7 17be e366 fabd
00000030: c1f6 09be ed34 a5bd 1ec6 22be 55b4 45bd
00000040: 4f08 f7bd 1c34 72bd 1090 8fbd 23a4 20bd
00000050: 5226 acbd 90b3 6f3c ac40 afbc e047 c9bd
00000060: 3b4e e5bd c8a5 d3bc 986a ccbd 2615 9dbd
00000070: 2727 efbc 1e87 21bb 58e9 903a 2d6e 31bd
00000080: 03bb 13be c85f ac3d c9da d3bd ac23 1cbe
00000090: a995 a6bd 2e25 b4bd 7514 96bd 40da 12be
000000a0: 3070 fbbd 8550 a2ba 1788 80bd ef01 00be
000000b0: e0e9 c1bd 87bd 02be 135c 25be f827 acbd
000000c0: 94c1 f2bd 1511 22be a094 64bd be26 eabd
000000d0: b756 9e3d 6a43 5cbd 95ad 2dbe 443e 82bd
000000e0: b95c 8ebc 270d f1bd c704 7bbb d468 b2bc
000000f0: c1bf 97bc eea7 a5bd 979c b9bd 360b 80bd
-0.013759111 -0.011144833 -0.03110683 -0.0049622855 -0.08244171 -0.061892778 -0.08694863 -0.13033119
-0.10103315 0.08849544 -0.14810123 -0.12226655 -0.13473035 -0.080667354 -0.15895888 -0.04826768
-0.120621316 -0.059131727 -0.070098996 -0.039219033 -0.084057465 0.014630213 -0.021393143 -0.09828162
-0.11196562 -0.025835887 -0.09981269 -0.07670049 -0.029193474 -0.0024647187 0.001105587 -0.043317962
-0.14426808 0.08416706 -0.10344464 -0.15247983 -0.08134014 -0.08796154 -0.073281206 -0.14341068
-0.122772574 -0.0012383616 -0.06275957 -0.12500738 -0.09468436 -0.12767611 -0.16148405 -0.08406061
-0.11853328 -0.15826829 -0.055805802 -0.11433171 0.07731383 -0.05377523 -0.16960748 -0.063595325
-0.017378198 -0.11770087 -0.0038302408 -0.021778502 -0.018524053 -0.08088671 -0.0906307 -0.06252138

dense_6/bias f4 [100]
00000000: e21d 7dbc 5687 cbbd 3545 43be 4f83 0bbe
00000010: 64fa c6be a688 e6bd 0d89 a2bd 6d21 d7bd
00000020: 2427 02be ada6 7cbd f004 9fbe 18eb 50be
00000030: 108b 53bd 251f 3bbe 5b98 e4bd 0000 0000
00000040: 0fdc fcbd 3d0e 98be b692 8bbd 1015 9fbd
00000050: cca8 fabd 5db2 bfbd 223a e3bd 5873 acbe
00000060: 5c62 babe b234 0bbe 194e 19be 5e2a 5bbe
00000070: d85f c4bd 910d c5bd 7802 a4be bbda eabd
00000080: 49be eebd 14a2 a8be d657 a3bd 2e35 0cbe
00000090: fe26 09be f91c c4bd e96d 03be f609 03be
000000a0: 7ea4 b8be 169d 0fbd 99fe bebc a8ad 5ebd
000000b0: 47b3 bebd ffdf 3bbd 7430 94bd ce99 a9be
000000c0: bf5f 8dbd ed95 aebd 91fd e3bd de31 b5bd
000000d0: 3f85 7cbd 9461 733c 2509 88bd b111 13be
000000e0: e67c 57be 5d4e d9bd 336a dcbd 8e20 a7bd
000000f0: 11f1 d2bc ebbe d0bd 603d a0bd d803 e3bd
00000100: 9d2d 51bd 7299 9ebd 5641 a2be b0cf c4bd
00000110: dd49 afbd cf6e 14bf 44eb 1fbd 883b c4be
00000120: 3d0f e8be 12f9 1abe c03e 65bd ac60 53be
00000130: 9650 29be 5117 02be 1328 34be 10c0 edbd
00000140: 3175 89bd f321 bfbd 6e6f 0bbe 4f5f babd
00000150: bf86 b6bd 983d 46bd cc25 68be 2c07 c1bd
00000160: 3539 7fbe 7c46 c9bd 0387 82bd 5012 0ebe
00000170: 46b0 debd 7236 bdbd 7b9c afbd 68fb 97bd
00000180: 1bfe a8bc d055 cdbd 1e4e 63bd 0f50 00be
-0.015449019 -0.09937923 -0.19069369 -0.13624309 -0.38862908 -0.11256532 -0.079362966 -0.10504422
-0.12710243 -0.061682392 -0.31058455 -0.20402181 -0.051646292 -0.182736 -0.11161872 0.0
-0.1234666 -0.29698363 -0.06815092 -0.07767689 -0.12239227 -0.09360192 -0.11095072 -0.3368175
-0.36403167 -0.1359432 -0.14971198 -0.2140288 -0.09588593 -0.09621728 -0.32033134 -0.11467501
-0.11657388 -0.32936156 -0.07975738 -0.13692161 -0.1339378 -0.095758386 -0.12834896 -0.12796769
-0.36062998 -0.03506192 -0.023314761 -0.05436483 -0.09311538 -0.045867916 -0.07235804 -0.33125156
-0.06903028 -0.0852469 -0.11132348 -0.08847402 -0.06165051 0.014854807 -0.06642369 -0.14362217
-0.21043739 -0.1061065 -0.107624434 -0.08160506 -0.025749715 -0.10192665 -0.07824206 -0.110847175
-0.05106889 -0.07744111 -0.31690472 -0.09609926 -0.0855901 -0.5798158 -0.039042726 -0.3832667
-0.45324126 -0.15134075 -0.055968046 -0.20642346 -0.16534647 -0.12704207 -0.17593412 -0.11608899
-0.067118056 -0.09332647 -0.13616726 -0.0910021 -0.089124195 -0.048398584 -0.22670668 -0.09425196
-0.24924167 -0.09827897 -0.06373408 -0.13874173 -0.10873465 -0.092389 -0.08574768 -0.07420999
-0.02062898 -0.10026133 -0.05549442 -0.1253054

sequential_2/dense_6/MatMul f4 [100, 28]
00000000: 4ee9 e4bd acff 54be 9ba7 31bd 29ff 553e
00000010: 00f2 c13c 2892 08bd 9681 b23d cf4a 033e
00000020: 1ac7 dd3d c024 06bc 9233 f33d 2136 f1bd
00000030: ad3b 293e cc86 09bd 97d4 fe3d 008b 8a3a
00000040: fe96 a9bd 0bf1 29be 74e9 c6bd 69d9 1b3e
00000050: 9fb3 e7bd a8df 67bd 367d c7bd 01f4 57be
00000060: 9f91 383d 9c9e 623d aec1 26be 7c9d 24be
00000070: 1ec4 7ebe e3a8 07be 5f56 22be 0ffe 67bd
00000080: aaa7 88bd 934e 47be 6632 fa3d 1b5f 923e
00000090: a3af c9be de3c b63d b317 403e b7cd c5be
000000a0: dbbc 3a3e a6c8 9f3d 2334 153d 9bde cf3d
000000b0: 2480 15be 4e00 b23d 2749 0a3e 8077 07be
000000c0: 0437 22be 3858 81bd 09c3 b43d 555c e63e
000000d0: 4daa bfbd 07b4 4dbe c03b 243b 4074 483c
000000e0: 1d6e 08be c636 9bbe 81d6 be3d cd11 f73d
000000f0: bd71 073d 823d 3ebe 2077 4b3c 1e42 813e
00000100: a799 18bd 4992 b43d 8bec 6fbe c754 4ebe
00000110: 5f32 a4bc 6c34 6ebc 0a02 b5be be2e 4abe
00000120: 437a 34be 4e6e b83d c436 18be 39a2 ce3e
00000130: 5001 e53b 7fe7 b13c 947e 613e 530e 1dbe
00000140: f8ab 62be 20b2 603e d562 25be 21f7 08bd
00000150: e1c9 d8bd b45e b9bd b6a9 babd 879b 9c3c
00000160: 37a2 05be cb88 2bbe 6eab e03d 3d54 553d
00000170: ffac e73d 5193 ff3c c401 23bd a3e6 f1bc
00000180: ccc2 893d 1af0 c13d 78aa 403c e633 41be
00000190: 6fd1 c03d d021 18bd 193a 5d3d aa12 efbd
000001a0: 60c9 0b3d 508a 89be ce52 363c 40df e0bb
000001b0: b2a0 80bb 3f22 763d 151e 053e 0431 23be
000001c0: e95b 8d3f 5214 cc3e a6aa 17bc 9fce 1b3d
000001d0: e244 adbd f0a6 99be 76fa b4bd 556c 02be
000001e0: f2f8 44be 0cc5 4ebe 9e8a 653e 73a3 eabc
000001f0: 9944 9ebe 5506 eabe a830 92be 5089 de3c
00000200: 54ef 7abe b22d ec3d 6742 c7bd d3ec e4be
00000210: bf37 8abe 5f55 57be 48b6 cfbd f4b1 85be
00000220: e883 8ebe c224 8dbe fc1f 47be c2dd 63be
00000230: b0a0 853d 7a69 c8bd 7968 c53e 2f13 aa3e
00000240: e3fc 373e 53ae cc3d 7c58 63bd 2cbf 28be
00000250: 6e58 433e ed73 263d 6afd 77be 1355 a43d
00000260: fd39 0e3d 2586 463d f041 aebe 8fa9 843d
00000270: 2e53 db3b b577 173e 7268 8bbe f00e 53bd
00000280: d369 cebe d2ae 85bc 6909 18be c3cd 0ebc
00000290: d70c 473e 94a2 32bd bcb6 5f3d daf0 49be
000002a0: 85f7 1b3d 0e12 94be 3267 2ebe 4b6e b9bd
000002b0: fda9 1a3e c5ce 933c bcbc 7e3d 3b1a 2fbe
000002c0: 43fc 46be 1574 37be 4333 efbd 83fb 28be
000002d0: eead 493d c28a 21be bfdb 373e 7c69 293e
000002e0: a04a 5f3c 1acc ba3d 0427 41be b88d dc3c
000002f0: cefa 25be 1928 cf3d 98b8 06bd 9e04 2a3e
00000300: 8741 fcbd e410 24be 06d7 95bd c50b 65bd
00000310: 604d 92be 626a 38be 1829 2abd f352 27bd
00000320: d49c e23d ac90 22be a0d7 83bb 8fd8 0ebe
00000330: 88a6 4cbd 0c76 ebbd af9e 383e 6032 c03c
00000340: 3401 1b3c a179 513e b200 4bbe 24e6 743c
00000350: 7868 723e 6045 c33c 221c 013e 3d6b 42be
00000360: 2f96 3c3d d99c 55be 4600 0d3e 4027 b5bb
00000370: f3c3 843c 3001 e7bc 4d5a c8bd 325b 103d
00000380: 3d39 223d 6e4e 0ebe f58d 8dbe a27b 10bf
00000390: 1e92 d23d 28e3 cdbd 820b 00be 40ab 96bd
000003a0: 4f1c 3a3c 0256 863c fcef 0fbe 6606 eb3c
000003b0: 64eb 2cbe 9514 8f3c 99c8 1c3e 854e 5bbe
000003c0: 973b bf3d 0877 53bd 305e 2f3e 155d f43d
000003d0: a503 e9bc 430e 3b3c 41e9 ba3c 881c 06be
000003e0: cd16 6ebc e31a dabd 5361 0d3e 1b97 10be
000003f0: 8c00 5dbe e8f4 85be cf12 b5bc a485 dcbd
-0.11177312 -0.20800656 -0.04337273 0.20898117 0.023674965 -0.03334251 0.08716123 0.12821506
0.10828991 -0.008187473 0.11875071 -0.117779024 0.16526671 -0.033575818 0.12442892 0.001056999
-0.082807526 -0.16595857 -0.097124964 0.15219654 -0.11313557 -0.05660978 -0.09740679 -0.21089174
0.04506075 0.055327043 -0.1628482 -0.160757 -0.248795 -0.13248019 -0.1585326 -0.056638774
-0.066726044 -0.19463567 0.12216644 0.28588185 -0.39391813 0.08898328 0.1875904 -0.3863351
0.18236105 0.078019425 0.036426675 0.101498805 -0.14599663 0.08691464 0.13504468 -0.1322918
-0.158413 -0.063156545 0.088262625 0.4499232 -0.09358654 -0.20088206 0.0025060028 0.012234747
-0.13323255 -0.30315226 0.09318257 0.12063942 0.033067454 -0.18578151 0.012418538 0.25245756
-0.03725591 0.08816964 -0.23430078 -0.20149527 -0.02004355 -0.014538866 -0.35353118 -0.19744393
-0.17624764 0.09005414 -0.14864641 0.4035814 0.006988682 0.021716831 0.22020942 -0.15337496
-0.22135913 0.2194295 -0.16150983 -0.033438805 -0.1058538 -0.09051266 -0.09114401 0.01911713
-0.13050161 -0.16751401 0.109701976 0.05208229 0.11312293 0.031198176 -0.039796606 -0.029528921
0.06726608 0.09469624 0.011759393 -0.18867454 0.09414946 -0.03714162 0.054010484 -0.11673482
0.034127593 -0.26863337 0.011128141 -0.006862551 -0.0039254064 0.060091253 0.12999757 -0.15936667
1.1043674 0.39859253 -0.009256994 0.038038846 -0.08460404 -0.30010176 -0.08836834 -0.12736638
-0.1923559 -0.20192355 0.2241616 -0.028642392 -0.3091171 -0.45707956 -0.28552747 0.027165085
-0.24505359 0.11532153 -0.09729462 -0.44711933 -0.26995656 -0.2102866 -0.10142189 -0.2611233
-0.2783501 -0.27567106 -0.19445795 -0.22252563 0.06524789 -0.09785743 0.3855627 0.3321776
0.17967562 0.09994187 -0.055504307 -0.16479176 0.19076702 0.0406379 -0.24217764 0.08024039
0.03472327 0.048467774 -0.3403468 0.06477653 0.0066932654 0.14791758 -0.27228123 -0.051527917
-0.40315112 -0.016318712 -0.1484734 -0.00871605 0.19438492 -0.043612078 0.05461763 -0.19720784
0.03807785 -0.28920025 -0.17031553 -0.0905424 0.15103908 0.018042931 0.06219171 -0.1709985
-0.19432168 -0.17915376 -0.11679699 -0.16502194 0.049238138 -0.15775588 0.1795492 0.16544145
0.013628632 0.091209605 -0.1886254 0.026923046 -0.16208956 0.1011507 -0.032890886 0.16603324
-0.12317186 -0.16022068 -0.07316403 -0.055919427 -0.28574657 -0.18009332 -0.041543096 -0.04085059
0.11065069 -0.158755 -0.0040235072 -0.13949798 -0.049963504 -0.11497125 0.18029283 0.02346152
0.009460736 0.20456554 -0.19824484 0.014947448 0.23672664 0.023836792 0.12608388 -0.1898622
0.046041664 -0.20860614 0.13769636 -0.0055283606 0.016206717 -0.028198808 -0.097828485 0.03524322
0.039605368 -0.13897106 -0.27647367 -0.5643865 0.10281776 -0.10053092 -0.1250439 -0.07356882
0.011359288 0.016398434 -0.1405639 0.028689574 -0.1688667 0.017465869 0.15310897 -0.21416672
0.09337538 -0.05162719 0.17125773 0.119318165 -0.02844412 0.0114169745 0.022816302 -0.13096821
-0.014531803 -0.106496595 0.13806657 -0.14120142 -0.2158224 -0.2616341 -0.022103695 -0.107676774

sequential_2/dense_7/MatMul f4 [64, 100]
00000000: edf7 1e3e 28f7 4abe 2fbd 91bd 5d5f 993d
00000010: 9219 3e3e 98b6 4c3e 657b 31bc e77e ee3d
00000020: 28dc 293e df36 553b 48f5 3b3c 2324 d2bd
00000030: 5c77 27be dc23 5abd 6f4a f3bd fdc0 3abe
00000040: 965a 7abd 1f72 193d 3800 8cbd 7b65 95bd
00000050: 2682 333e bce9 12bd 8398 313e 0f10 cf3d
00000060: 9a2c 8e3c 8f74 1d3e 3feb 513e 15bf c83b
00000070: 4d59 13be 8fd1 f5bc 3ccb 323d 3879 08be
00000080: aa5d d83d d43a 353e 672b c23d c7c0 c4bd
00000090: 0c80 ffbd fb79 293e 27b1 1e3e 04da e2bd
000000a0: aab8 c0bc ba65 46be 02a2 43be 7478 c23d
000000b0: cd7a 3ebd 75b7 5bbe 0d7a d1bd 39a9 9a3d
000000c0: f4c0 65bd 68e0 733c cc44 c13d b114 dbbd
000000d0: f133 de3d 7671 1dbe 05c3 33bd c25b e63d
000000e0: a3e3 0d3e e977 c2bd 01fc 6cbd 09d7 86bd
000000f0: fc13 49bd ee0d 00be 9e20 fdbc f8f1 233d
00000100: f92c 4bbe 1be3 433d 376f 683e 3524 eabd
00000110: b150 ea3b 4335 543d 8221 b43d 1b1b a53d
00000120: cac6 413e adab 24bd f11f 3d3d c642 6dbd
00000130: 069a 143e c628 3abe 73d3 883c c84e 30bd
00000140: d6ec b13d 20b8 2bbc d847 71bd 9230 933e
00000150: 34fe 383e b366 37bd 44b2 72bd 5de2 f73d
00000160: 31f7 8e3d ef49 06bd feca 843c 8135 503d
00000170: c7b1 a2bd e925 9ebc fc67 37be 6236 303e
00000180: 81c0 083e 8e54 903b ccbb 0bbe c1a2 073e
00000190: 7437 94bd fec5 4fbe 349f 3ebe d124 073b
000001a0: 9be0 913d 3c3a 21bd f33e 183b 38dc 883c
000001b0: 5e29 f73d 8a32 64be e2e4 a43d 809c 433d
000001c0: 492e aebd f691 533e aea6 c13d 6dc1 183e
000001d0: dcbc a43d d0fa b43c ba11 37be ec7d 14be
000001e0: 0715 febc 7016 d2bc 9152 863d 363f 393e
000001f0: c6ff 51be e0e5 893d 6467 853e a76e 82be
00000200: b674 973d ede1 48bd 454b 1dbc 3d73 debd
00000210: 1eff 96be b5ff 6f3e fa7c 82bd 9609 5b3d
00000220: d805 8c3d 8f17 3bbe d6c8 b63d cf64 bebd
00000230: 7fb0 f73d 9e85 41be 1222 d9bd 8524 043e
00000240: 4101 0a3d 79e8 56be 645f 30be 1ce2 073e
00000250: c96f d7bc b78f 253e ae7a 93bc b479 153e
00000260: 88dc 7c3b bfd3 09be cc5d 003e 8de5 cdbc
00000270: 30f7 7cbd 8081 acbc f7f3 cabd 386f 563d
00000280: 151f eb3d fba4 cbbc 9fa9 16bc 5242 263c
00000290: 2f6c 1a3d 2e4f 903d a5c5 8a3e debb 243d
000002a0: 21c0 533d e6d6 263e c546 823d 1566 7c3e
000002b0: d7a7 76be b667 dabd 3a09 00be 77fe a83d
000002c0: 2c87 80bd d0d3 6e3d 38c7 3a3d c268 1abe
000002d0: 5083 9abc ab7a a83e 7480 8fbe cffa ebbb
000002e0: 0d2d 4d3e 7856 733d 61ca 5d3e 57bf 4b3e
000002f0: 4d0e 9d3d 0ea7 22bc 5479 4dbb 55a9 c93d
00000300: 78ec d93d 10bb 153e 8929 be3d f6f5 923d
00000310: 3880 a93d da00 17be 00ee 833a d5f4 debd
00000320: e6a8 213e 2585 8abe 9171 a4bd 1ee6 82bd
00000330: 2bbf 4f3e f64d 0c3b 1a01 c2bd 3bcf 833c
00000340: 8d4b 153e 1ec9 743d 976f a03d 7f00 c2bb
00000350: 45fa 5b3d 19b7 083d c7ce 003e f47f 1fbd
00000360: 9a61 903b 155a f6bb 2bb5 b83a d0d2 33be
00000370: 4846 a23d 7abd 933d 524a f33d 669a 0c3e
00000380: d197 9a3e 9bfb a63d 17df 2bbe f7c7 3a3e
00000390: e0f0 253d d16f 17be 3b16 c53d 5080 1bbd
000003a0: 00f8 3c3d bbda 99bd 91b7 893c 0ee0 aa3d
000003b0: 1eae 67bd 11c7 10bd 2819 233e 2d1f 19bd
000003c0: 1b64 e13d 8daa 153e c59a 5cbd bcb0 6fbe
000003d0: 8e46 eabd b910 55be df51 7abe 78ed 2b3e
000003e0: ffab 0dbe d56d 863d 5c53 d1bd 4a83 b03d
000003f0: 31e4 21bd e4fe 7fbd 0d0c b93d 7397 febc
0.15524264 -0.19820845 -0.07116162 0.07488892 0.18564442 0.19991529 -0.010832642 0.116452985
0.16587889 0.0032533926 0.011472054 -0.10260799 -0.16354126 -0.053256854 -0.118794315 -0.18237682
-0.061121546 0.03746235 -0.06835979 -0.072947465 0.17530116 -0.035867438 0.17343335 0.10110485
0.017355252 0.15376495 0.20499896 0.0061262944 -0.14389534 -0.030007152 0.04365085 -0.13327491
0.1056474 0.17698222 0.094809346 -0.09607082 -0.12475595 0.16550438 0.15497266 -0.110767394
-0.023525555 -0.19374743 -0.1910477 0.09495631 -0.04650383 -0.21456702 -0.102283575 0.07551808
-0.056092218 0.014885046 0.0943695 -0.10697306 0.10849751 -0.15375313 -0.043887157 0.1124797
0.13856368 -0.09495527 -0.057857517 -0.065839835 -0.049091324 -0.12505314 -0.030899342 0.04002568
-0.19841374 0.047824007 0.22698675 -0.11432687 0.0071507324 0.051808607 0.087954536 0.080618106
0.18923488 -0.040202785 0.04617304 -0.05792501 0.1451188 -0.18179616 0.01670239 -0.04304388
0.08687751 -0.010480911 -0.058906406 0.28747994 0.18065721 -0.044775676 -0.05925204 0.12103722
0.06980742 -0.032785352 0.016210075 0.050832275 -0.079440646 -0.019305186 -0.1791076 0.17208245
0.13354684 0.004404611 -0.13645858 0.1324568 -0.07237139 -0.20290372 -0.18615419 0.002062131
0.07122918 -0.039362177 0.002323088 0.016706571 0.12068437 -0.22284904 0.080514684 0.047756672
-0.08504922 0.20661148 0.0945562 0.14917536 0.080438346 0.022092253 -0.17877856 -0.1450116
-0.031015886 -0.025645465 0.06558717 0.1809052 -0.20507726 0.06733298 0.26055443 -0.25475046
0.07395308 -0.049043585 -0.009600465 -0.10861824 -0.29491514 0.23437388 -0.06371494 0.05347594
0.06837052 -0.18270706 0.08925025 -0.092965715 0.12094211 -0.18898627 -0.106022015 0.12904556
0.033692602 -0.20987119 -0.17223889 0.13269848 -0.02629842 0.16168104 -0.018002834 0.14597207
0.0038583595 -0.13459681 0.1253578 -0.025133872 -0.061759174 -0.021057844 -0.09909814 0.05235216
0.11480538 -0.024858942 -0.009195714 0.010147648 0.03770083 0.07046352 0.27103916 0.040218227
0.0516969 0.16292915 0.063611545 0.24648316 -0.24087463 -0.106643125 -0.1250352 0.0825166
-0.06275782 0.05830747 0.045600146 -0.15079024 -0.018861443 0.32906088 -0.2802769 -0.0072015296
0.20036717 0.059408635 0.21659233 0.19897209 0.07668743 -0.009927524 -0.0031352835 0.09846751
0.10640806 0.1462214 0.09285266 0.071758196 0.08276409 -0.14746419 0.0010065436 -0.10886542
0.15787086 -0.27054706 -0.080294736 -0.063915476 0.20287769 0.0021408773 -0.09472866 0.016090026
0.14579602 0.059762113 0.07833784 -0.0059204693 0.053705472 0.03337774 0.1257888 -0.038940385
0.0044061663 -0.007518063 0.0014092078 -0.17560887 0.07923561 0.07213874 0.1187941 0.13730773
0.30193952 0.08153459 -0.16784321 0.18240343 0.04051292 -0.14788748 0.09623381 -0.037964165
0.04613495 -0.07512423 0.016811164 0.08343516 -0.056562535 -0.035346095 0.15927565 -0.037383247
0.11005422 0.14615841 -0.053858537 -0.23407263 -0.114392385 -0.2080716 -0.24445294 0.16789806
-0.13835143 0.065639175 -0.10220978 0.086187914 -0.03952426 -0.062498942 0.09035502 -0.031078076

sequential_2/dense_8/MatMul f4 [32, 64]
00000000: b1c4 5cbd f980 94be bc98 64bd 7c77 45bd
00000010: 0b3e 67be 0c22 313c d4a3 e83b 38b9 43be
00000020: 8867 64be ac55 5abe 85f8 21be 929a 36bd
00000030: fa5a 9b3e a1f6 eabd 97c0 91be ba70 8e3e
00000040: 4303 6b3d 5fa6 98be 2584 6fbe b23c 0e3e
00000050: a5a3 d3bd 4e35 f53d 3e64 af3c 6c44 94be
00000060: b5c2 b63d f765 5cbe 2555 7d3b 013b c43d
00000070: d299 7abe bd71 92be 9278 843c ff41 923d
00000080: 402e 1bbe 18a7 ddbc 85bb 1bbe b5dd 1dbe
00000090: c713 e9be ce98 263e a08e 3d3e c068 ebbd
000000a0: e9a1 0b3e 82cb 3d3e c8a4 a1be 999b d93d
000000b0: fab8 913b 85f5 48be de99 6dbd ef4d 0abe
000000c0: 3ebd 38be 8031 d73d b8ea 96be 9aaa 47be
000000d0: 7c12 9dbe f2ff a2be 9e3e 193e 4bf5 bcbe
000000e0: 9e7e 25be 3068 7abd b0fc 92be c0e8 c33c
000000f0: 8bcb f03c c9ed 57bd 37b4 013d 6d02 393c
00000100: 3c7d b9bd e92b 92bd 6276 cc3d 8c0e ebbd
00000110: f7e2 97be e657 98be 3716 06be 3754 edbd
00000120: 8dbc 92be d7b2 733d a216 8a3d ecce 06be
00000130: 4ec9 6c3d 7569 2dbe c20a 2cbe 7004 d4bd
00000140: 26bf 803d 3b6c a93d 36d5 c63d 35eb 36be
00000150: 9e57 47be 72c0 1cbe b4ea 98bd 2712 b3bd
00000160: 06f4 9bbe 0e46 1ebe 42ac cebd 9380 46be
00000170: adf9 8cbe b1a5 6bbd 4c76 94bd 2901 2bbd
00000180: d60f 57be ba6d 8fbe 9bbb 62bd 42e3 e1bc
00000190: f4a9 63be 5c83 52bd b044 55be cb48 8c3e
000001a0: 5640 1fbe 67d3 023e 209f f73c b628 88bc
000001b0: 1b30 ba3d b74d 673d f2b3 8f3d 1865 073e
000001c0: 7fc2 353d d395 a83d ede7 333e c317 99be
000001d0: 79b5 84be d4bd 88be 8bfb a0bd 49e9 d7bd
000001e0: 6979 51bd ec83 05bc a8f3 38be e523 d5bd
000001f0: 5347 a7be 1663 a33b bd48 053e bb7b 153e
00000200: 973b bbbd 1566 d43c ed73 22bd 5cef 74bd
00000210: db48 213d a49b 383e 32a1 05be 4ebf 52be
00000220: 3cdc 98bd 32ba ce3c 73f6 aabb 3cad a53d
00000230: 51e3 e33d ca5c 093e 6c4b 3ebe 405b 10be
00000240: 2d04 a03d 25a3 70be 7001 a43d 92b0 abbc
00000250: 70fc edbb 094d 0d3e 1fe2 80be 65c7 dd3d
00000260: 3d96 fe3d 579a 38be 7d7d d83d 3ba4 34be
00000270: 4a6a 9fbe 58a9 44be 9176 8bbe 9365 c63d
00000280: 23e0 42be 5483 89bc 9c65 2bbd c733 d0bd
00000290: 3606 27bd 9c65 be3d 8601 38be 178b 48be
000002a0: a0e5 553e 7ddc 233d b0a1 6d3d 7fc5 bdbe
000002b0: 36aa 513e 7eb1 8dbd 2ba0 99bd 1f10 65be
000002c0: 9635 00be 98f5 a13d c4dc 87be ec90 fcbd
000002d0: d3b2 583d 631d 97be c205 a3be be4c aebc
000002e0: 3c56 5cbe 3d01 0bbc b3da e4bb 777d a83c
000002f0: 799e 7ebd f927 e53d ed53 fc3d d463 443c
00000300: 9b21 993d 60d4 edbd a1c5 083e fa9b 8bbe
00000310: 798c 50be 411e 86bc 1c3f ae3e f321 9dbe
00000320: 4a53 a93b ba28 61be 64e5 8b3e 0fe4 b73c
00000330: 7def 11be 1ab5 b8bd ebf0 15bd 43b1 68be
00000340: 9a05 803e d5e3 23be 8db6 b0be bc0b ff3d
00000350: 7e24 613e e35f 1abd 4793 e0bd 026d abbe
00000360: 5af3 9dbd bcf1 073e 690a 823e 1794 583e
00000370: 0040 c5be 4de1 f6bd 5050 bdbe 4271 2a3e
00000380: 640a 613e 85df 29be 539b ffbc 3b04 1bbd
00000390: ca46 273e 2098 b1be 36a7 87be afa4 ec3c
000003a0: 39aa eebd 9ec2 953e 3adb 113e 1b73 17bd
000003b0: 79e0 8b3c 7c91 3abe dfe7 e93d 732e 7dbe
000003c0: af62 a3bd 5ceb 45be 3638 f3bd aa2d 91be
000003d0: 9387 0bbe 6fa4 42be cc20 4c3d 8d47 c1be
000003e0: af45 25be 2d68 93be e3a4 983e b150 0dbe
000003f0: b25b a3bd 8540 2e3c 1c87 88be 825c 87be
-0.053898517 -0.29004648 -0.05580972 -0.048209652 -0.22582261 0.01081134 0.007099608 -0.19113624
-0.22305119 -0.21321744 -0.15817459 -0.044581003 0.30342847 -0.11472822 -0.28467247 0.2782038
0.057376157 -0.2981443 -0.23390253 0.13890341 -0.10333947 0.11973058 0.021410104 -0.28958452
0.08923856 -0.21523272 0.0038655486 0.095815666 -0.2447274 -0.286024 0.016170774 0.07141494
-0.15154362 -0.027057216 -0.15208252 -0.15416606 -0.455229 0.16269228 0.18511438 -0.11494589
0.13635983 0.18534663 -0.3157103 0.10625381 0.0044470998 -0.19624908 -0.058008067 -0.13506292
-0.1804094 0.10507488 -0.2947595 -0.19498673 -0.30678165 -0.31835896 0.14965293 -0.36905894
-0.16161582 -0.061134517 -0.2870841 0.023914695 0.029393932 -0.052717004 0.031666007 0.011292082
-0.0905709 -0.071372814 0.09983517 -0.11477384 -0.29665348 -0.2975456 -0.13094412 -0.11588328
-0.28659478 0.059496727 0.06742598 -0.13164872 0.057809167 -0.1693476 -0.16800979 -0.10352409
0.06286459 0.082725964 0.097086355 -0.17863162 -0.19467017 -0.15307787 -0.07466641 -0.08743697
-0.30459613 -0.15456411 -0.10091449 -0.19384985 -0.27534238 -0.057531063 -0.07249126 -0.041749153
-0.21002135 -0.28013402 -0.055354696 -0.027574185 -0.222328 -0.051394805 -0.20826983 0.27399287
-0.15551886 0.12775956 0.030227244 -0.016620975 0.09091207 0.0564706 0.07016744 0.13222158
0.04437494 0.08231702 0.17568941 -0.2990094 -0.25919703 -0.26707327 -0.07860478 -0.105425425
-0.051141176 -0.008149128 -0.18061697 -0.10407237 -0.32671604 0.004986177 0.13016029 0.1459798
-0.09142225 0.025927583 -0.039661337 -0.059798583 0.03937612 0.18028122 -0.13049772 -0.2058079
-0.074638814 0.02523527 -0.0052173673 0.080896825 0.111273415 0.13414302 -0.18583459 -0.14097309
0.078132965 -0.23499735 0.08008087 -0.020958219 -0.007262759 0.13798918 -0.25172517 0.10829047
0.124309994 -0.18027626 0.1057081 -0.17640774 -0.3113578 -0.19205225 -0.27238896 0.096873425
-0.19030814 -0.016786255 -0.04184495 -0.10166126 -0.040777408 0.09296724 -0.17969331 -0.19584309
0.20888376 0.040005196 0.058015525 -0.3706474 0.20475087 -0.069186196 -0.07501253 -0.22369431
-0.12520441 0.079081714 -0.26535618 -0.12332329 0.052904915 -0.29514608 -0.3184033 -0.021276828
-0.21517271 -0.008484182 -0.006984079 0.020567639 -0.06216285 0.11189265 0.12320695 0.0119866915
0.07477113 -0.11612773 0.1335664 -0.27267438 -0.20366086 -0.016371848 0.34032524 -0.30689964
0.0051673995 -0.21988192 0.2732345 0.022447614 -0.14251514 -0.090189174 -0.03660671 -0.2272387
0.25004274 -0.1600488 -0.34514275 0.1245341 0.21986577 -0.0376891 -0.10965591 -0.33481604
-0.07712431 0.13275808 0.25398567 0.21150242 -0.3852539 -0.120546915 -0.36975336 0.16644767
0.2197662 -0.16589172 -0.031201994 -0.03784583 0.16335598 -0.34686375 -0.2649476 0.028887121
-0.11653561 0.29250044 0.14243785 -0.036975008 0.01707481 -0.1821956 0.11421179 -0.2472475
-0.07977807 -0.19328064 -0.11875956 -0.2835515 -0.13625936 -0.19008039 0.049835965 -0.377499
-0.16139863 -0.28790417 0.298133 -0.13800313 -0.07976474 0.0106355 -0.2666558 -0.26437765

sequential_2/output/MatMul f4 [1, 32]
00000000: 88d4 84be 2fdd 4fbe 9627 d5bd 2c80 aa3d
00000010: ec2c afbd f715 0bbe 4d06 843e 09f7 b3bd
00000020: 6c4e 523c c91d 573e 4c87 253a fd84 d83d
00000030: 6c7c 77be 5e86 c43d 7437 a93d 9030 6f3d
00000040: 709e 1fbe 196c 8ebe 030b 9c3c b7f7 7d3d
00000050: 1100 2d3e c828 2fbe efb6 b93d b4cf 923b
00000060: fd09 d9bd 1e15 a83d 432c 3bbe 5da9 cc3c
00000070: f3ac 173e 7ad1 75be 8f49 0abd a780 5dbe
-0.25943398 -0.20299219 -0.10407941 0.08325228 -0.0855349 -0.13582598 0.25786057 -0.087873526
0.01283608 0.21007456 0.00063144113 0.105722405 -0.24168557 0.09595941 0.0826253 0.058395922
-0.15587783 -0.27816847 0.01904822 0.062003817 0.16894557 -0.171054 0.09068095 0.0044803265
-0.10597608 0.08207153 -0.18278603 0.024983102 0.14812069 -0.2400569 -0.033761557 -0.21631108
