new/naver_movie_rate_quantized_model.tflite (tflite, 14416 bytes, 7 tensors)

dense_5/bias f4 [32]
000000 be 66 d5 3d 48 98 8f 3d 19 bc ba bd 55 65 6c bd
       0.10419987 0.07011467 -0.09117908 -0.057713825
000010 39 65 06 3e 89 a0 f3 bd 1b 3c 02 3e 20 dd db 3d
       0.13124551 -0.11895854 0.12718241 0.107355356
000020 3d 38 a8 3e 6c 2a 75 3d 80 44 ef 3e d7 42 4e 3d
       0.32855406 0.05985491 0.4673195 0.050356712
000030 66 d5 e4 bd 0e 15 28 be e2 8d 6a 3e c8 17 13 bc
       -0.11173515 -0.16414282 0.22905686 -0.008977838
000040 5f ae 60 3e e3 48 9b be 9e 19 0b be e8 78 f4 bd
       0.21941517 -0.30329046 -0.13583991 -0.119371235
000050 5b 06 34 bc 83 aa f1 3d f5 83 7d be 3c 8f 81 3e
       -0.010987843 0.11800101 -0.24757369 0.25304592
000060 c1 9a be bd 1a 09 29 bd 8d 4e 72 be 4d 9d 9f be
       -0.09306861 -0.041268446 -0.23662777 -0.31174698
000070 ed b1 61 3d 77 2a e1 bd 1c f2 80 3e 23 9a 86 3e
       0.055101324 -0.10994428 0.25184715 0.26289472

dense_4/bias f4 [64]
000000 34 22 56 be 68 73 0a be b6 58 b3 3d ac 40 ab bd
       -0.20911485 -0.13520586 0.08757155 -0.083619446
000010 d4 c7 3f be 86 27 08 be 9a 25 99 3d 4a 2f c2 bd
       -0.18728572 -0.13296327 0.07477875 -0.09481676
000020 03 8b ac bd d4 fc 39 be a3 b9 0b be 95 c5 d1 bd
       -0.08424952 -0.18162853 -0.13645034 -0.10242764
000030 35 9f f6 3d 2f 62 e0 bd 76 82 36 bd 78 e6 ea 3c
       0.12042085 -0.10956227 -0.04455801 0.02867435
000040 0f 47 0d be 5a 10 61 bd a0 63 a5 bd 35 1e 1f be
       -0.13796638 -0.054947235 -0.080756426 -0.15538867
000050 b4 df c0 bd 95 0d db bd 9a 06 07 be c9 67 39 be
       -0.09417668 -0.1069595 -0.13186112 -0.18105997
000060 a6 ea ab bd 5c f2 14 be 41 aa fb bd 75 ef 99 bd
       -0.08394365 -0.14545578 -0.12288333 -0.07516376
000070 e3 5c a0 bd f1 85 09 be 45 c4 f3 bd 55 4b ac bd
       -0.07830217 -0.13430001 -0.1190267 -0.08412806
000080 93 8a 93 be 41 32 ec bd 0e ef 4e be 3a 70 b3 bd
       -0.2881666 -0.11533023 -0.2020838 -0.0876164
000090 8f eb fc bd da 23 ec bd 76 55 fc bd 53 a2 07 be
       -0.12349617 -0.11530276 -0.12320988 -0.13245516
0000a0 63 17 35 be c5 cb 20 be 17 ca f8 bd 02 d7 79 be
       -0.17684703 -0.15702732 -0.121479206 -0.24398425
0000b0 b8 9a 3b be d9 87 99 bd 91 1f e7 bd 6a 4b 4a be
       -0.1832074 -0.07496614 -0.11285318 -0.1975533
0000c0 96 74 9f bd de e3 aa bc e5 be fc bd 92 6b 5d be
       -0.07785909 -0.020860609 -0.12341098 -0.21623066
0000d0 02 03 7e be ad f6 1e be ae 6e 1a be 1e ef 0f be
       -0.24805835 -0.15523787 -0.15081283 -0.1405606
0000e0 ee 5e b9 bd 2f 8c 31 be 74 9f 71 bc 5d 42 9e 3d
       -0.090513095 -0.17338632 -0.014747489 0.077275015
0000f0 16 00 5f bd 40 81 48 bd 61 4e e2 3d fb 6d b6 bd
       -0.05444344 -0.048951387 0.11050106 -0.08907696

dense_3/bias f4 [100]
000000 29 f1 e5 bd 6b 05 4e bd fb cf e2 be a9 57 e7 bd
       -0.11227638 -0.050298136 -0.44299302 -0.11296017
000010 28 17 28 be 00 00 00 00 23 d5 92 be 1c 00 ea be
       -0.16415083 0.0 -0.28678235 -0.45703208
000020 f0 db cc bd a5 75 dc be 6d 25 12 be af 0e d2 bd
       -0.10002887 -0.43058506 -0.1427209 -0.10256707
000030 37 f0 65 3e 08 ab 63 bd fa 9f 8f bd db ab c7 bd
       0.22454916 -0.05558303 -0.07012935 -0.09749576
000040 73 99 a5 bd 40 13 01 be dc e1 81 bd 6a 9c 0c be
       -0.08085909 -0.12605 -0.063419074 -0.13731542
000050 c2 66 f5 bd 16 65 88 bd 0e 70 a2 bd 70 b4 6d bd
       -0.1198249 -0.066599056 -0.07931529 -0.058033407
000060 41 4c b0 bd d1 ff a7 bd be ef c3 bd 37 83 84 bd
       -0.08608294 -0.0820309 -0.095672116 -0.0647034
000070 3e cc 25 be f2 c3 8a bd b0 1e 88 bd 19 79 83 bd
       -0.16191193 -0.06775655 -0.06646478 -0.06419582
000080 66 87 2c be dd 4c e0 be b6 65 f8 bd 07 b6 8a be
       -0.16848525 -0.43808642 -0.12128775 -0.27092
000090 21 fd 8b be 25 d2 27 bd 1e c5 12 be 89 ef f9 bd
       -0.2734156 -0.040971894 -0.14333007 -0.12203891
0000a0 f1 13 4a bd 8d 1c 0a be 3a 40 34 be 50 81 70 bd
       -0.049335424 -0.13487454 -0.17602625 -0.058717072
0000b0 ca 1e 9b bd a0 ad b6 be 7d 46 6e bd ca c8 c9 bd
       -0.07574232 -0.3567934 -0.05817269 -0.098527506
0000c0 58 05 58 bd 8d 5f 00 be a6 88 bc be d6 a0 c9 bd
       -0.05273947 -0.1253645 -0.36823004 -0.0984513
0000d0 b8 ed ce bd c0 67 07 be 2b e7 f0 be b1 ec 06 be
       -0.10103935 -0.13223171 -0.47051367 -0.13176228
0000e0 94 fa e2 bd 0d 77 90 bd b5 3a 97 bd 70 04 a0 bd
       -0.1108295 -0.07053957 -0.07384244 -0.078133464
0000f0 e5 f8 84 3d d0 78 fe bd 2c 33 ef be 45 de f4 bd
       0.06492785 -0.12425387 -0.4671873 -0.11956457
000100 ea f7 a8 be 38 e1 75 bd 44 fa 3d bd a0 92 c4 bd
       -0.33001643 -0.06002924 -0.04638125 -0.09598279
000110 93 fa 7a bd b1 0a 69 bd 55 05 d1 bd b3 21 36 be
       -0.061274122 -0.05689496 -0.10206095 -0.17786293
000120 c1 1f 97 bd ef bf 45 be d3 80 bf bd 40 cc fc bd
       -0.073791035 -0.19311498 -0.09350743 -0.12343645
000130 00 00 00 00 37 ba 09 be 46 5e 1f be b6 2a 96 bd
       0.0 -0.13449942 -0.15563306 -0.07332365
000140 9f d3 c8 bd e2 2f d7 bd 2b c1 ae bd ba 75 02 be
       -0.098059885 -0.1050718 -0.085329376 -0.12740222
000150 70 f5 1d be 84 5d a3 bd 9c 2b 69 bd 58 aa 5c bd
       -0.15425658 -0.07976821 -0.056926355 -0.05387339
000160 b3 24 10 be f9 00 ca bd 19 f7 f5 bd eb 53 33 be
       -0.140765 -0.09863467 -0.12010021 -0.17512481
000170 37 b3 fd bd 1b 16 75 bd 92 1b 2d bd be d8 b4 bd
       -0.12387698 -0.059835535 -0.04226262 -0.08830403
000180 4b 15 ab bd 01 78 a8 bd 65 41 8b bd 35 be 3e be
       -0.08353671 -0.08226014 -0.067995824 -0.18627246

sequential_1/dense_3/MatMul i1 [100, 28] scale=0.009998131 zero_point=0
000000 f6 eb fd f5 fc f5 14 fa f9 f7 f0 0d fa f6 ef 08
       -0.09998131 -0.20996074 -0.02999439 -0.109979436 -0.039992522 -0.109979436 0.19996262 -0.05998878 -0.06998692 -0.08998317 -0.15997009 0.12997569 -0.05998878 -0.09998131 -0.16996822 0.079985045
000010 f3 08 fc 0f 08 03 f1 f0 e9 fd fa 04 05 ee fa f5
       -0.12997569 0.079985045 -0.039992522 0.14997196 0.079985045 0.02999439 -0.14997196 -0.15997009 -0.229957 -0.02999439 -0.05998878 0.039992522 0.049990654 -0.17996635 -0.05998878 -0.109979436
000020 f4 06 f4 07 fa fc eb f9 0e fb f9 00 08 f0 0f 00
       -0.11997756 0.05998878 -0.11997756 0.06998692 -0.05998878 -0.039992522 -0.20996074 -0.06998692 0.13997383 -0.049990654 -0.06998692 0.0 0.079985045 -0.15997009 0.14997196 0.0
000030 f9 f6 fc 09 ee f3 fc ee 7f 3c 09 05 f4 fe 14 f7
       -0.06998692 -0.09998131 -0.039992522 0.08998317 -0.17996635 -0.12997569 -0.039992522 -0.17996635 1.2697626 0.59988785 0.08998317 0.049990654 -0.11997756 -0.019996261 0.19996262 -0.08998317
000040 e4 f9 fc 00 e7 c5 f2 fb f9 eb f9 f6 e7 e8 f9 e2
       -0.27994767 -0.06998692 -0.039992522 0.0 -0.24995327 -0.5898897 -0.13997383 -0.049990654 -0.06998692 -0.20996074 -0.06998692 -0.09998131 -0.24995327 -0.23995513 -0.06998692 -0.29994392
000050 e0 ce f6 d2 00 f3 f7 e3 0b ed fc ec fa ff 0c e7
       -0.31994018 -0.49990654 -0.09998131 -0.459914 0.0 -0.12997569 -0.08998317 -0.28994578 0.109979436 -0.18996449 -0.039992522 -0.19996262 -0.05998878 -0.009998131 0.11997756 -0.24995327
000060 05 0f ff f1 ff fa 0e ed fd 07 ec 12 0c f7 f8 fb
       0.049990654 0.14997196 -0.009998131 -0.14997196 -0.009998131 -0.05998878 0.13997383 -0.18996449 -0.02999439 0.06998692 -0.19996262 0.17996635 0.11997756 -0.08998317 -0.079985045 -0.049990654
000070 fa 04 ff fb 14 0b 02 08 03 09 eb 0b fc fa f8 08
       -0.05998878 0.039992522 -0.009998131 -0.049990654 0.19996262 0.109979436 0.019996261 0.079985045 0.02999439 0.08998317 -0.20996074 0.109979436 -0.039992522 -0.05998878 -0.079985045 0.079985045
000080 0d 13 05 24 f0 03 e6 02 ff f5 0c fd ec ee 06 07
       0.12997569 0.18996449 0.049990654 0.3599327 -0.15997009 0.02999439 -0.25995138 0.019996261 -0.009998131 -0.109979436 0.11997756 -0.02999439 -0.19996262 -0.17996635 0.05998878 0.06998692
000090 02 ff f2 f5 f9 f7 10 f9 f4 0e fb f3 f9 13 07 13
       0.019996261 -0.009998131 -0.13997383 -0.109979436 -0.06998692 -0.08998317 0.15997009 -0.06998692 -0.11997756 0.13997383 -0.049990654 -0.12997569 -0.06998692 0.18996449 0.06998692 0.18996449
0000a0 fc ec f3 0e ec f0 f3 fc 2b 19 0f 21 13 f0 f9 07
       -0.039992522 -0.19996262 -0.12997569 0.13997383 -0.19996262 -0.15997009 -0.12997569 -0.039992522 0.42991963 0.24995327 0.14997196 0.32993832 0.18996449 -0.15997009 -0.06998692 0.06998692
0000b0 f6 ed d7 d3 d0 f1 e1 fb e5 09 f0 fc e2 f3 f2 e5
       -0.09998131 -0.18996449 -0.40992334 -0.4499159 -0.47991025 -0.14997196 -0.30994204 -0.049990654 -0.26994953 0.08998317 -0.15997009 -0.039992522 -0.29994392 -0.12997569 -0.13997383 -0.26994953
0000c0 f9 06 fa eb 75 39 fa 19 ec ee f2 f4 eb 08 fb f5
       -0.06998692 0.05998878 -0.05998878 -0.20996074 1.1697813 0.5698934 -0.05998878 0.24995327 -0.19996262 -0.17996635 -0.13997383 -0.11997756 -0.20996074 0.079985045 -0.049990654 -0.109979436
0000d0 d3 c7 e3 f2 e9 ff f4 0f e2 dc ed de f7 e0 08 ee
       -0.4499159 -0.5698934 -0.28994578 -0.13997383 -0.229957 -0.009998131 -0.11997756 0.14997196 -0.29994392 -0.3599327 -0.18996449 -0.33993644 -0.08998317 -0.31994018 0.079985045 -0.17996635
0000e0 f5 f2 fb eb ed ef 11 05 f6 f9 ec 06 0f f4 f2 0a
       -0.109979436 -0.13997383 -0.049990654 -0.20996074 -0.18996449 -0.16996822 0.16996822 0.049990654 -0.09998131 -0.06998692 -0.19996262 0.05998878 0.14997196 -0.11997756 -0.13997383 0.09998131
0000f0 0a 0f 14 12 f3 f7 04 01 fd 00 fd ee 6f 43 fd 19
       0.09998131 0.14997196 0.19996262 0.17996635 -0.12997569 -0.08998317 0.039992522 0.009998131 -0.02999439 0.0 -0.02999439 -0.17996635 1.1097925 0.6698747 -0.02999439 0.24995327

sequential_1/dense_4/MatMul i1 [64, 100] scale=0.0072529283 zero_point=0
000000 05 ee ed e5 f2 e6 e8 eb e8 05 e6 08 cc f5 ee f1
       0.036264643 -0.13055271 -0.13780564 -0.19582906 -0.101541 -0.18857613 -0.17407028 -0.15231149 -0.17407028 0.036264643 -0.18857613 0.058023427 -0.37715226 -0.07978221 -0.13055271 -0.10879392
000010 c9 05 fe 01 fa fc 1c fb 07 23 33 e9 10 e7 03 f0
       -0.39891106 0.036264643 -0.014505857 0.0072529283 -0.04351757 -0.029011713 0.203082 -0.036264643 0.0507705 0.2538525 0.36989933 -0.16681735 0.11604685 -0.18132322 0.021758785 -0.11604685
000020 0a cd 0b f7 05 e7 16 fe e3 ea f0 e0 f7 e1 dc e5
       0.072529286 -0.36989933 0.07978221 -0.065276355 0.036264643 -0.18132322 0.15956442 -0.014505857 -0.21033493 -0.15956442 -0.11604685 -0.2320937 -0.065276355 -0.22484078 -0.26110542 -0.19582906
000030 08 ea d0 fe 05 fa 00 eb d5 ed fb e5 df eb f0 f1
       0.058023427 -0.15956442 -0.34814057 -0.014505857 0.036264643 -0.04351757 0.0 -0.15231149 -0.3118759 -0.13780564 -0.036264643 -0.19582906 -0.23934664 -0.15231149 -0.11604685 -0.10879392
000040 fc 0d 02 f6 fe da 04 ea 08 00 07 03 fd ef 00 e1
       -0.029011713 0.094288066 0.014505857 -0.072529286 -0.014505857 -0.27561128 0.029011713 -0.15956442 0.058023427 0.0 0.0507705 0.021758785 -0.021758785 -0.123299785 0.0 -0.22484078
000050 e8 e8 ff e3 c4 01 ec 33 d4 e9 11 03 fd 04 0a 00
       -0.17407028 -0.17407028 -0.0072529283 -0.21033493 -0.4351757 0.0072529283 -0.14505857 0.36989933 -0.31912884 -0.16681735 0.123299785 0.021758785 -0.021758785 0.029011713 0.072529286 0.0
000060 04 0c 10 c7 ee 17 03 19 06 fe 03 e8 f4 da ff f7
       0.029011713 0.08703514 0.11604685 -0.41341692 -0.13055271 0.16681735 0.021758785 0.18132322 0.04351757 -0.014505857 0.021758785 -0.17407028 -0.08703514 -0.27561128 -0.0072529283 -0.065276355
000070 e9 e8 0d f6 00 ed fa de f9 0c e5 f4 fa f4 f9 f2
       -0.16681735 -0.17407028 0.094288066 -0.072529286 0.0 -0.13780564 -0.04351757 -0.24659957 -0.0507705 0.08703514 -0.19582906 -0.08703514 -0.04351757 -0.08703514 -0.0507705 -0.101541
000080 fa 07 ed 15 eb ea ed 00 f7 fa e9 01 f9 11 e3 ec
       -0.04351757 0.0507705 -0.13780564 0.15231149 -0.15231149 -0.15956442 -0.13780564 0.0 -0.065276355 -0.04351757 -0.16681735 0.0072529283 -0.0507705 0.123299785 -0.21033493 -0.14505857
000090 e0 e2 e6 ff 02 08 f1 e7 04 e2 fc 0c f4 e0 f4 e4
       -0.2320937 -0.21758784 -0.18857613 -0.0072529283 0.014505857 0.058023427 -0.10879392 -0.18132322 0.029011713 -0.21758784 -0.029011713 0.08703514 -0.08703514 -0.2320937 -0.08703514 -0.203082
0000a0 07 08 10 e5 e6 14 0f 08 f6 da 03 de e6 e2 0f f6
       0.0507705 0.058023427 0.11604685 -0.19582906 -0.18857613 0.14505857 0.10879392 0.058023427 -0.072529286 -0.27561128 0.021758785 -0.24659957 -0.18857613 -0.21758784 0.10879392 -0.072529286
0000b0 ef 07 00 ff ef fd ed 0a 0a e6 15 06 00 09 0f 0b
       -0.123299785 0.0507705 0.0 -0.0072529283 -0.123299785 -0.021758785 -0.13780564 0.072529286 0.072529286 -0.18857613 0.15231149 0.04351757 0.0 0.065276355 0.10879392 0.07978221
0000c0 f0 f8 0c 03 e7 e5 ff e2 fc e9 ae ea 11 14 e0 c9
       -0.11604685 -0.058023427 0.08703514 0.021758785 -0.18132322 -0.19582906 -0.0072529283 -0.21758784 -0.029011713 -0.16681735 -0.59474015 -0.15956442 0.123299785 0.14505857 -0.2320937 -0.39891106
0000d0 09 c7 d8 13 1c 17 0b f7 fe 02 f8 f3 0d 14 d6 07
       0.065276355 -0.41341692 -0.29011714 0.13780564 0.203082 0.16681735 0.07978221 -0.065276355 -0.014505857 0.014505857 -0.058023427 -0.094288066 0.094288066 0.14505857 -0.30462298 0.0507705
0000e0 f4 f0 fc f6 ec ec ef eb e7 dc ff e1 fc 39 da 1c
       -0.08703514 -0.11604685 -0.029011713 -0.072529286 -0.14505857 -0.14505857 -0.123299785 -0.15231149 -0.18132322 -0.26110542 -0.0072529283 -0.22484078 -0.029011713 0.41341692 -0.27561128 0.203082
0000f0 20 f8 00 f9 10 e0 ef f7 fc 0e ac 17 f8 f6 b3 0a
       0.2320937 -0.058023427 0.0 -0.0507705 0.11604685 -0.2320937 -0.123299785 -0.065276355 -0.029011713 0.101541 -0.60924596 0.16681735 -0.058023427 -0.072529286 -0.5584755 0.072529286

sequential_1/dense_5/MatMul i1 [32, 64] scale=0.005970727 zero_point=0
000000 06 2c a8 10 e9 0c b6 f7 fb d4 1e 10 b1 1b 1c 81
       0.035824362 0.262712 -0.525424 0.095531635 -0.13732673 0.071648724 -0.44183382 -0.053736545 -0.029853636 -0.262712 0.17912182 0.095531635 -0.47168744 0.16120963 0.16718036 -0.75828236
000010 20 02 29 06 10 1a 14 fd 05 1a 20 fb 12 07 f2 0e
       0.19106327 0.011941454 0.24479981 0.035824362 0.095531635 0.15523891 0.119414546 -0.017912181 0.029853636 0.15523891 0.19106327 -0.029853636 0.10747309 0.04179509 -0.08359018 0.08359018
000020 eb 21 e8 fc 19 dd ea 2a fc f4 ed 21 27 2c 0a 07
       -0.12538527 0.197034 -0.14329745 -0.023882909 0.14926818 -0.20897545 -0.131356 0.25077054 -0.023882909 -0.071648724 -0.113443814 0.197034 0.23285836 0.262712 0.059707273 0.04179509
000030 20 f6 07 ad ff 27 06 0d 02 ef 15 b1 20 e2 c7 0f
       0.19106327 -0.059707273 0.04179509 -0.49557036 -0.005970727 0.23285836 0.035824362 0.077619456 0.011941454 -0.10150236 0.12538527 -0.47168744 0.19106327 -0.17912182 -0.34033144 0.08956091
000040 e0 2c af d2 1b e7 99 ed 00 ec e2 23 88 04 d3 84
       -0.19106327 0.262712 -0.4836289 -0.27465346 0.16120963 -0.14926818 -0.6149849 -0.113443814 0.0 -0.119414546 -0.17912182 0.20897545 -0.7164873 0.023882909 -0.26868272 -0.74037015
000050 e2 15 34 f3 e2 03 fd 00 ec 24 17 fe 08 e6 ba d9
       -0.17912182 0.12538527 0.31047782 -0.077619456 -0.17912182 0.017912181 -0.017912181 0.0 -0.119414546 0.21494618 0.13732673 -0.011941454 0.047765817 -0.15523891 -0.4179509 -0.23285836
000060 f5 05 0c 09 e8 ce dc fa 26 dc eb 2e fc ea f2 cd
       -0.065678 0.029853636 0.071648724 0.053736545 -0.14329745 -0.29853636 -0.21494618 -0.035824362 0.22688763 -0.21494618 -0.12538527 0.27465346 -0.023882909 -0.131356 -0.08359018 -0.30450708
000070 e4 01 18 eb e6 06 11 eb ec 07 21 9c ff ff a8 05
       -0.16718036 0.005970727 0.14329745 -0.12538527 -0.15523891 0.035824362 0.10150236 -0.12538527 -0.119414546 0.04179509 0.197034 -0.5970727 -0.005970727 -0.005970727 -0.525424 0.029853636
000080 d9 fe e4 eb f4 11 ea 04 17 f4 fd 03 e7 e5 10 d9
       -0.23285836 -0.011941454 -0.16718036 -0.12538527 -0.071648724 0.10150236 -0.131356 0.023882909 0.13732673 -0.071648724 -0.017912181 0.017912181 -0.14926818 -0.16120963 0.095531635 -0.23285836
000090 f3 f8 ec bc f8 ce e3 e1 28 0b ff d3 ed f0 eb df
       -0.077619456 -0.047765817 -0.119414546 -0.40600944 -0.047765817 -0.29853636 -0.17315109 -0.18509254 0.23882909 0.065678 -0.005970727 -0.26868272 -0.113443814 -0.095531635 -0.12538527 -0.197034
0000a0 fe fc ed e2 17 cb ee db e5 d6 ff f4 dc 04 ec 1c
       -0.011941454 -0.023882909 -0.113443814 -0.17912182 0.13732673 -0.31644854 -0.10747309 -0.22091691 -0.16120963 -0.25077054 -0.005970727 -0.071648724 -0.21494618 0.023882909 -0.119414546 0.16718036
0000b0 39 15 20 18 f7 d2 06 f8 cc fe 0c f8 0d 19 f0 f9
       0.34033144 0.12538527 0.19106327 0.14329745 -0.053736545 -0.27465346 0.035824362 -0.047765817 -0.31047782 -0.011941454 0.071648724 -0.047765817 0.077619456 0.14926818 -0.095531635 -0.04179509
0000c0 0f d9 eb e4 cc e4 1a dd 05 dc 04 d7 0b f4 dd 38
       0.08956091 -0.23285836 -0.12538527 -0.16718036 -0.31047782 -0.16718036 0.15523891 -0.20897545 0.029853636 -0.21494618 0.023882909 -0.24479981 0.065678 -0.071648724 -0.20897545 0.33436072
0000d0 cd 13 f4 db f2 07 0e d2 01 1f d9 e8 0c f6 f0 d5
       -0.30450708 0.113443814 -0.071648724 -0.22091691 -0.08359018 0.04179509 0.08359018 -0.27465346 0.005970727 0.18509254 -0.23285836 -0.14329745 0.071648724 -0.059707273 -0.095531635 -0.25674126
0000e0 15 e7 1c f3 1b f1 e8 e3 17 12 d5 21 f5 10 ce fe
       0.12538527 -0.14926818 0.16718036 -0.077619456 0.16120963 -0.08956091 -0.14329745 -0.17315109 0.13732673 0.10747309 -0.25674126 0.197034 -0.065678 0.095531635 -0.29853636 -0.011941454
0000f0 cc fd 19 01 19 e8 dc e3 fc 0f dc d3 eb 11 14 dc
       -0.31047782 -0.017912181 0.14926818 0.005970727 0.14926818 -0.14329745 -0.21494618 -0.17315109 -0.023882909 0.08956091 -0.21494618 -0.26868272 -0.12538527 0.10150236 0.119414546 -0.21494618

sequential_1/output/MatMul f4 [1, 32]
000000 e9 21 e4 3d 50 85 6c 3d 3a c1 2b 3d c7 1f d7 bd
       0.1113928 0.057744324 0.041932322 -0.10504108
000010 5d f8 4a 3e 7e 2a 61 be fc 96 c3 3d 95 1a 34 3d
       0.19821306 -0.21988866 0.09550282 0.043970663
000020 07 f1 68 3e b0 ca 18 be e6 0f 84 3e 80 c5 43 3d
       0.22748195 -0.14921069 0.2579338 0.047795773
000030 be 03 a4 bd 6d 54 ff bd 44 b5 02 3e 43 24 53 be
       -0.08008526 -0.12467275 0.1276446 -0.20619301
000040 58 0b 01 3e 50 19 9b 3d 05 58 3b be d4 26 90 be
       0.12601984 0.07573187 -0.18295296 -0.28154624
000050 3d 20 46 bd ce 62 ef 3c 60 f0 f2 bd 68 26 0b 3e
       -0.04837059 0.029221918 -0.11862254 0.1358887
000060 c1 13 ff 3b 65 14 a9 3d af 18 3d 3d 02 01 73 bd
       0.0077843373 0.08255843 0.04616612 -0.059327133
000070 d4 69 5c 3d a4 fa d3 bd 7b 0e ed 3d d8 bd 2f 3e
       0.053811863 -0.1035054 0.115750276 0.17162263
